code/Model-Compression-Demo/Model Pruning/Prune/pts/prune_model.pth (torch, 970127 bytes, 8 tensors)

conv1.weight f4 [7, 1, 3, 3]
000000 6e ba 02 bf c7 d8 05 bf 50 85 88 be 0e 70 af 3e
       -0.5106572 -0.522839 -0.2666421 0.34265178
000010 0d 62 3d 3e a8 b7 fb 3d a6 70 55 3d 16 df 91 bd
       0.18494435 0.12290889 0.052109383 -0.071226284
000020 b9 71 15 be 76 f7 17 3e 85 f0 de 3e 34 aa 2d 3d
       -0.14594163 0.14840493 0.43542877 0.042398646
000030 1f b1 a3 be 49 2a 49 be aa c1 bf be f1 34 b8 3e
       -0.3197107 -0.19645037 -0.3745244 0.3597789
000040 4f 82 63 be 5e 0c ec 3d d0 19 a8 bd 80 30 a7 be
       -0.22217678 0.11525796 -0.08208048 -0.3265419
000050 9d 6a fc 3e e2 fe 8d be 94 c9 d4 3d 35 02 be 3e
       0.4930009 -0.27733523 0.103900105 0.3711106
000060 81 f0 a8 3e 8b 71 b9 be 5e 0d 63 be f5 22 cf 3e
       0.3299599 -0.3621944 -0.22173068 0.40456358
000070 0e 6b c0 be 1c cd 14 bf c1 0e 5d 3e 03 d2 1c be
       -0.37581676 -0.5812547 0.2158766 -0.15314488
000080 7d b2 df be ee 98 7d be f6 d1 e5 3e b6 26 fd 3a
       -0.43690863 -0.2476537 0.4488675 0.0019313905
000090 e9 57 3f be d7 93 87 3e 51 b3 60 be 86 6f 36 3e
       -0.18685879 0.2647998 -0.21943404 0.1781598
0000a0 39 46 44 3e cc 73 bc be d2 dc 81 be 28 f3 b8 be
       0.19167413 -0.36807096 -0.25363785 -0.36123013
0000b0 14 ad fb be ee d9 b8 bd 65 a1 81 3d e1 90 61 3e
       -0.49155486 -0.09025942 0.06329612 0.22027923
0000c0 9f a9 8e 3d 65 b0 66 3e 0a de ab be 56 63 b1 3e
       0.069659464 0.22528227 -0.3356784 0.346461
0000d0 c3 81 ad be 69 4b 17 bf c4 21 b5 bc 0b e7 52 be
       -0.33888063 -0.5909944 -0.022110827 -0.20595948
0000e0 c9 a0 b6 3e db 75 37 bf 17 5e e7 be 31 bd 7f 3e
       0.35669544 -0.7166421 -0.45188972 0.24974515
0000f0 1a e4 dd be 1f 05 a8 3e 53 eb 21 3d
       -0.4333809 0.32816407 0.039531063

conv1.bias f4 [7]
000000 1e 32 32 be 3c a6 4f bd 5a e1 40 3e 5e 07 ac bd
       -0.1740193 -0.050695643 0.18835965 -0.08399843
000010 95 8c 05 3e 20 d1 9e bd 72 74 9a bc
       0.13041909 -0.07754731 -0.018854354

conv2.weight f4 [13, 7, 3, 3]
000000 79 3e 9b bc ec 84 18 be 43 89 01 bd fb 87 24 be
       -0.018950688 -0.14894456 -0.031625044 -0.16067497
000010 6c 24 ef bd 67 82 70 be 9b aa 27 bd ba ad 3b 3d
       -0.11676869 -0.23487245 -0.040934186 0.045819975
000020 a6 db a6 3d 80 94 69 3d ef 9f 5f bc 5a 4d 9a 3d
       0.08147363 0.057026386 -0.013648971 0.07534285
000030 55 ba 25 be 77 7e ab 3c 93 d7 7b 3d d1 66 b6 bb
       -0.16184361 0.020934327 0.061484884 -0.005566456
000040 0a 15 92 3d 37 3b fd bd 9b 9f f3 3d d7 26 02 3e
       0.07132919 -0.1236481 0.11895677 0.12710129
000050 75 f6 eb 3c 3e 7d 3d be b4 cc e7 bb a8 e4 de 3c
       0.028804043 -0.18504807 -0.007073963 0.027208641
000060 3f 92 3f bd 53 9a 9e be b0 40 94 be 1e 32 e1 3d
       -0.04677033 -0.30977115 -0.28955603 0.10995887
000070 ec 75 77 bb 0b 37 22 3e c2 23 9e 3d 90 b4 24 bc
       -0.0037759496 0.1584131 0.07721664 -0.010052815
000080 68 65 a9 3d 20 5b 27 be 59 32 6f be fe f9 a1 bd
       0.08271295 -0.16343355 -0.2335905 -0.0790901
000090 5b b1 79 3d ad f1 e0 3a 7a 0a dc 3d 6e 31 95 bd
       0.060960155 0.0017161869 0.10744186 -0.072848186
0000a0 42 7a c5 bd 04 b6 08 bd 7b 23 92 3e ef a6 1f 3d
       -0.096424595 -0.03337671 0.28542694 0.03897756
0000b0 b1 e2 61 3e 2a 8e 60 bb 95 db 19 bd e2 84 ec bc
       0.22059132 -0.0034264424 -0.037562925 -0.028871957
0000c0 2c 88 76 be 40 9a ae be a8 08 a5 bd 27 bc 7f 3b
       -0.24075383 -0.34102058 -0.08058292 0.003902206
0000d0 2d 2f 94 be 80 f2 21 be d1 d9 56 bd 25 eb 5d bc
       -0.28942242 -0.15815163 -0.05245382 -0.013544832
0000e0 ed 9f 22 be fd 45 f2 3c 5c 21 37 3c 81 06 45 bd
       -0.1588132 0.029574389 0.011177387 -0.048101906
0000f0 2c bc b1 be 69 84 84 be 3e 97 2e be e2 1f 20 be
       -0.34713876 -0.2588227 -0.17049882 -0.15637162
000100 35 35 c4 3d da 64 4a 3d 2c 8d c2 bd ec 31 a5 be
       0.09580461 0.049412586 -0.09499583 -0.3226465
000110 61 ae da be 4f b5 9e bb 9d 34 ab bd 19 aa 63 be
       -0.42711166 -0.004843391 -0.083596446 -0.22232856
000120 69 a4 63 be 00 32 13 3e 16 35 67 bd 28 6a 53 be
       -0.22230686 0.14374542 -0.05644711 -0.20645964
000130 f2 24 ab 3e 7a 1a 7e be 0c 66 83 be 3e c2 a3 3d
       0.33426625 -0.24814788 -0.25663793 0.07996033
000140 3d f8 ab be 97 ef a2 be b0 c1 07 bd 67 59 82 be
       -0.33587828 -0.31823418 -0.0331437 -0.25458834
000150 ce e6 b4 3d 8b 5b 80 be dd 49 62 bd de 41 40 be
       0.08833085 -0.25069842 -0.055246223 -0.18775126
000160 ff 0f 42 be 22 4a 4a 3d 1a 2a 53 be d3 22 03 be
       -0.18951415 0.049387105 -0.20621529 -0.12806253
000170 ae 4f 05 3e 05 f8 21 be 99 0c 59 bd 2b 0e c8 bd
       0.13018677 -0.15817268 -0.05299053 -0.09768327
000180 8e 4f 80 3c eb 78 82 3d 96 dd f7 bd 4b ca 44 bd
       0.015662935 0.063707195 -0.12102811 -0.048044484
000190 39 9c ef 3d c3 12 cf bc 53 cf a3 bb c7 d6 d8 3d
       0.11699719 -0.025277501 -0.00499908 0.105878405
0001a0 f2 d9 87 3c 86 a8 3d 3e 09 af 79 3d a8 bc 55 3c
       0.016583417 0.18521318 0.060957942 0.013045467
0001b0 94 4d 65 be d2 59 4f 3e b4 23 67 bd 1a 42 00 be
       -0.22392875 0.20249107 -0.056430534 -0.12525216
0001c0 43 ac 43 3e 26 86 13 be 71 b1 41 3d bc c7 0b 3e
       0.19108681 -0.14406642 0.047288362 0.13650411
0001d0 e3 9e ca bd d7 24 e1 3d 47 d5 f7 bd 45 dc 9c be
       -0.098935865 0.10993355 -0.12101226 -0.30636802
0001e0 ae 5a 15 3d f3 77 e6 3c 34 dc d5 bd 5b 71 49 be
       0.036463432 0.028133368 -0.10442391 -0.19672148
0001f0 33 b5 77 3c 50 81 2a bd 44 10 83 3e 66 87 3d 3c
       0.015118885 -0.04162723 0.25598347 0.011567926
000200 c8 9c 82 be f1 51 dc 3d d0 c5 c6 bc af eb ab bc
       -0.2551024 0.107578166 -0.024264246 -0.020986406
000210 ac 63 79 be 4b a4 2e be 40 b0 c1 bd 9b 53 d9 bd
       -0.24354428 -0.1705486 -0.09457445 -0.106116496
000220 c0 3c a7 3c 17 02 84 3d c3 d8 1a 3e 26 b1 26 bd
       0.02041471 0.06445711 0.1512175 -0.040696286
000230 01 2e 0b 3e b8 7e 33 3d 9b eb 21 bc 11 87 9f bc
       0.13591768 0.04382202 -0.009882833 -0.019473584
000240 e1 46 9a 3e 91 41 f5 3d c1 bb 6f be d0 66 b7 bd
       0.301322 0.119753964 -0.23411466 -0.08955157
000250 a1 0a b6 bc 57 13 10 3e 1a 2a fa bd ec 93 d1 3d
       -0.022221865 0.14069878 -0.122150615 0.10233292
000260 03 da 74 3d aa 94 ec bd 31 4e 32 be cd 87 ff 3c
       0.059778225 -0.11551793 -0.1741264 0.031192685
000270 3c 9c 48 3d af dc 0a be d0 ec 85 3d 12 8e 57 bd
       0.04897712 -0.13560747 0.06539309 -0.052625723
000280 f0 90 ce bd 14 b2 2a be 0d 9d 74 be 34 d2 f7 bd
       -0.100862384 -0.16669494 -0.23888035 -0.1210064
000290 21 25 e6 bc 32 38 3e bd 38 87 a0 bd df ab 0e be
       -0.028093876 -0.04644031 -0.07838291 -0.13932751
0002a0 bd e2 ec 3d 73 fc 42 be 2a 1d 74 bd 40 63 c7 3d
       0.115666844 -0.19041614 -0.059598126 0.09735727
0002b0 f8 d7 89 bd 71 8e 60 be 5e f6 ae bd 2e c2 ae be
       -0.06730646 -0.21929337 -0.085430846 -0.34132522
0002c0 a8 34 60 be 48 a9 2e 3d 52 c7 20 be a9 81 c3 bc
       -0.21895087 0.042641908 -0.15701035 -0.023865538
0002d0 49 ca 86 bd a5 d4 04 be a5 0a 43 be 34 76 46 be
       -0.065815516 -0.12971742 -0.1904703 -0.19381028
0002e0 46 c9 9f 3c aa 67 ad 3c c9 0b 92 bb e1 50 bb 3d
       0.019505154 0.021167595 -0.0044569713 0.09146286
0002f0 df 91 cd bd 9b 4b 16 bd eb 46 24 bd cd 6f 52 bd
       -0.10037588 -0.036693197 -0.040106695 -0.051376153
000300 87 ff af bc a2 04 96 3c 19 d7 c4 bd fc 41 bd 3d
       -0.02148415 0.018312756 -0.09611339 0.09241101
000310 18 ff 63 3d b6 7d cb bc 9b cd 4e 3d 7f dc 9e 3d
       0.0556632 -0.024840217 0.05048905 0.077569
000320 d7 d4 33 be 1a 2d 83 3d 99 c4 8a bb 92 7c 2d be
       -0.1756166 0.06405087 -0.004234862 -0.16942051
000330 eb c7 0f be e7 23 64 bd f6 b6 91 be b2 f8 e8 bd
       -0.14041106 -0.0556983 -0.284599 -0.1137556
000340 a6 e4 e2 3d 3b 70 04 3d 27 2f 23 be 61 7f 4c 3e
       0.110787675 0.032333594 -0.15935956 0.19970466
000350 6a c7 4a 3d e2 b3 51 be 2f 29 c8 bb ea 0a 1e 3e
       0.049506582 -0.20478776 -0.006108425 0.15433851
000360 65 ab 50 bd 6f 58 46 be 8f 11 82 be 65 c2 5b 3e
       -0.050944705 -0.19369672 -0.2540402 0.21460874
000370 96 1b 25 be 8f 70 1c be d2 00 32 3e 82 87 be 3c
       -0.16123804 -0.15277313 0.17383125 0.023257975
000380 43 93 91 bd 61 f9 d0 3d f4 8a d8 bc 0a 1d 30 be
       -0.07108166 0.10203815 -0.026433446 -0.17198578
000390 28 bf 3d 3e 6d c4 4b 3d ff bd d8 bd e5 b7 0a 3e
       0.18529952 0.049747873 -0.10583114 0.13546713
0003a0 d1 c2 32 3d 28 88 d0 bc 2b 13 06 3e 82 7d d7 3b
       0.043642823 -0.02545555 0.1309325 0.006576241
0003b0 66 56 21 be 4d 2c ab bc b8 38 19 bb 7e 4c be bd
       -0.15755615 -0.020895148 -0.0023379754 -0.092919335
0003c0 18 c7 1a 3d 3c 36 d5 3d 31 f8 8f be b0 d8 8f bd
       0.037787527 0.10410735 -0.28119043 -0.07023752
0003d0 31 d0 d0 3d 10 b0 94 bd 57 a6 bf bc d7 2a 92 3a
       0.10195959 -0.07260144 -0.023394747 0.0011151683
0003e0 25 27 83 bd 6d e7 d7 bb 5a 92 38 be 99 0a 8d bc
       -0.064039506 -0.0065888674 -0.18024579 -0.017216967
0003f0 ba a1 9e bc f2 6d 8c bd 75 f3 d8 bc 9d 5c 37 3e
       -0.019364227 -0.06856908 -0.026483277 0.17906423

conv2.bias f4 [13]
000000 c3 f5 17 3e 35 68 9d 3e 7a a2 b2 bd 76 f1 00 bd
       0.14839844 0.30743566 -0.08722396 -0.031480275
000010 2c 1e 17 be 7e 17 1b 3d a3 ac 3f bd 1c dc 31 bd
       -0.14757603 0.0378642 -0.0467955 -0.043422803
000020 b3 22 0a 3e 1e e9 21 3d ad dc 6f 3e 80 f4 f1 3d
       0.13489799 0.03952896 0.23424025 0.11814213
000030 fb d5 b5 3c
       0.02219676

fc1.weight f4 [128, 1872]
000000 a1 69 fc 39 4f 74 11 ba fd fa 30 bb 98 40 b1 39
       0.00048143885 -0.00055486424 -0.002700507 0.00033808197
000010 a4 cf 45 bc 93 4f ff bb df 2b bb ba de ad 84 3b
       -0.012073431 -0.0077914684 -0.0014280042 0.004049047
000020 92 f7 7e bb 7f 24 9e bb 20 74 4b bb 64 13 17 bc
       -0.0038904888 -0.004826128 -0.0031044558 -0.009220932
000030 a8 2b 69 b9 c7 8f cb 3a 0b 3c db ba bd 0d ac 3b
       -0.00022236875 0.001553052 -0.0016726268 0.005250661
000040 d0 f3 50 bb 49 0b b6 bb c9 50 8b bb ba 2a 48 bb
       -0.0031883605 -0.0055555445 -0.0042515737 -0.0030543045
000050 3c af 48 bb 9d c9 5c bc 1d e6 49 bc 50 c2 52 bc
       -0.0030622026 -0.013475803 -0.01232293 -0.0128637105
000060 38 87 5c bc 47 5d b9 3b a5 dc 4a 3a 5a 94 cd bb
       -0.013459973 0.0056568715 0.0007738567 -0.0062737884
000070 a7 c2 8d bb 06 8c a4 3b 15 52 7c bb 49 b1 35 3b
       -0.004326183 0.005021575 -0.0038501073 0.0027724078
000080 60 dd 11 bc 92 de e2 3b b3 1d c1 bb dc c9 80 bb
       -0.008902878 0.006923505 -0.005893433 -0.0039303135
000090 1d 2d 03 bb 55 8b 60 bb 1b 10 da bb c0 96 11 3b
       -0.0020015903 -0.0034262736 -0.006654752 0.0022215098
0000a0 3c d0 cf 39 65 73 4d b9 c9 da e9 ba ab a7 42 bc
       0.00039637263 -0.00019593311 -0.0017841692 -0.0118807955
0000b0 88 16 1e 3b 29 20 e9 3b 3a 03 1f bc 4a 87 31 bc
       0.0024122316 0.0071144295 -0.009705359 -0.010835478
0000c0 2f 75 0e bc ee f0 de b8 f8 c1 48 3b 83 24 a0 ba
       -0.008694931 -0.000106306616 0.0030633193 -0.0012217913
0000d0 d2 14 7d bb a4 80 2c bc 04 9b fc bb c4 94 09 3b
       -0.0038617146 -0.010528717 -0.007708909 0.0020993212
0000e0 cf 0d 0f bc cc da 1d 39 35 ff 62 ba 58 7e 42 bc
       -0.00873132 0.00015054195 -0.00086592446 -0.011870943
0000f0 f5 32 e4 3b 7a c1 9f 3b 76 98 f1 bb 28 de 2e bc
       0.0069640824 0.004875359 -0.007372911 -0.010673083
000100 61 ee a6 ba 43 11 bc ba 05 1f 99 3b c7 fe 11 bc
       -0.0012735837 -0.0014348406 0.0046728873 -0.008910841
000110 99 fd b8 bb 0b aa 9c 3a 29 7c 86 3b f4 cc cc bb
       -0.0056454656 0.0011952532 0.0041041565 -0.0062500183
000120 35 d1 9d bb 61 76 39 bc 9f 79 95 3b 91 d2 6b 3b
       -0.004816199 -0.011319728 0.0045616175 0.0035983662
000130 6e 27 9d 3b 39 47 45 bc 2f 29 0b bc 57 4a a3 bb
       0.00479596 -0.012040907 -0.008493706 -0.0049832272
000140 06 28 ce 3b 78 20 92 3b 58 98 8f 3b cf 40 d0 bb
       0.0062913923 0.004459437 0.0043821745 -0.006355382
000150 1c 7a ad ba 6c 6c 6c ba df a8 e3 39 da f0 b7 bb
       -0.0013235244 -0.00090188417 0.00043422633 -0.0056134285
000160 0f ce 18 3b cb f4 45 bc da 68 dd ba f9 51 ff bb
       0.002331618 -0.012082289 -0.001689221 -0.0077917543
000170 82 de 22 bc 10 ea b1 ba 6e 21 03 3c 7f 1c a2 bb
       -0.009940745 -0.0013573784 0.008003576 -0.0049472447
000180 b9 92 b7 3b 14 87 6c 3b b1 2d 23 3b 24 00 08 bb
       0.0056022075 0.0036091255 0.002489906 -0.0020752037
000190 eb fe 5b 3b 0e 76 05 bc 36 2e 84 3a 48 d0 81 3b
       0.003356869 -0.008145822 0.0010084573 0.0039615966
0001a0 04 1c 9f 3b aa d0 3f bc f8 5c 6a 3b ba c6 e5 bb
       0.0048556346 -0.011707464 0.003576098 -0.0070122154
0001b0 86 27 b0 3b 37 c1 60 3a 62 0f 09 3c d3 a6 b2 bb
       0.0053758053 0.0008573713 0.008365484 -0.005452016
0001c0 78 c3 aa ba 07 56 dc bb d6 09 5d 3b 7b 95 b3 3b
       -0.0013028225 -0.0067241224 0.0033727787 0.005480466
0001d0 78 df 46 bc c8 82 1a 3c 69 b1 b3 ba 49 e7 9d 3b
       -0.01213824 0.009430595 -0.0013709489 0.004818831
0001e0 98 47 ae bb 3c 6e 41 3a 61 6c 12 3c 7d 92 f8 bb
       -0.0053185932 0.0007378792 0.008936972 -0.007585822
0001f0 88 ef 0d bc 48 e4 e6 3b 06 1e c5 ba a6 9a 51 bc
       -0.008663066 0.007046256 -0.0015038855 -0.012793219
000200 af 7f 07 bc 73 49 86 ba 77 7d ea 3a 2e e7 e1 3b
       -0.008270188 -0.0010245278 0.0017890175 0.006894014
000210 d6 0f dc bb 3a d7 f0 3b db aa 3c 3b 08 5e 02 bc
       -0.006715755 0.0073498758 0.0028788361 -0.007956989
000220 e6 28 97 3b df 39 5e bc da 6f f8 bb 7d 57 86 bb
       0.00461303 -0.013563602 -0.007581693 -0.004099785
000230 06 fb 14 bc db 2a b6 bb a2 38 1d 3c 57 21 01 3c
       -0.009093052 -0.005559308 0.009596022 0.007881484
000240 aa 13 7f bb 2d 7e af 3b e2 f7 35 bb 91 cb 32 bc
       -0.0038921633 0.0053556175 -0.0027766158 -0.010912792
000250 77 e6 e5 3b 9e 01 93 bb 14 5b c7 bb e5 22 e2 3a
       0.007015999 -0.004486277 -0.0060838554 0.0017252831
000260 3f af b7 3a 96 1d 2e bc 2c 39 f8 bb 20 8d b1 bb
       0.0014014019 -0.010627171 -0.007575175 -0.0054184347
000270 a9 16 c8 3a 02 4a dd 3b 74 27 52 bc f4 10 bb bb
       0.0015265542 0.006753207 -0.012826789 -0.005708808
000280 66 0c 8f bb 4a fd 10 bc 1a 42 05 bc 72 db 06 bc
       -0.0043654917 -0.008849451 -0.008133436 -0.008231031
000290 8b e1 ba bb 13 91 b5 bb 79 2c 7d 3b d8 e2 8f 3b
       -0.0057031563 -0.005540976 0.0038631244 0.0043910556
0002a0 20 d0 89 bc 9f d2 92 3b 01 e6 87 bb 1f df 21 3b
       -0.016822875 0.0044806744 -0.0041472916 0.002469964
0002b0 83 ca 81 bb 72 37 7e 3a 80 61 05 bc 50 65 ed bb
       -0.003960909 0.0009697593 -0.008140922 -0.0072447434
0002c0 12 69 1f bc 98 7a 39 bc c0 f6 e9 ba ba 3d c2 bb
       -0.009729641 -0.0113207325 -0.0017850026 -0.0059277685
0002d0 dc 93 1f bc 58 b4 bf 39 14 6b d8 bb 51 aa 58 bb
       -0.009739842 0.00036564725 -0.0066045616 -0.00330605
0002e0 be 97 21 bc d7 f4 02 b9 48 74 f5 bb 30 b6 d3 3a
       -0.009862838 -0.00012488976 -0.0074906684 0.0016152319
0002f0 66 49 7f bb 1a 21 40 bc a1 0c 1a 3b 4e d1 34 bc
       -0.003895366 -0.011726642 0.0023506063 -0.01103623
000300 79 5e 6d 3a d9 c6 2d bc 05 72 b1 bb 74 d7 ab 3a
       0.000905491 -0.010606491 -0.0054152035 0.0013110475
000310 d0 a0 5e bc 85 6c 0a bc 33 3f 3e bc a6 72 f9 bb
       -0.013588145 -0.008448725 -0.011611748 -0.007612544
000320 8c 89 c0 3b fc ea 5f 3a 8a ec 92 bb 4e 4e 9b 3b
       0.005875772 0.00085417903 -0.004483764 0.0047395593
000330 aa 73 8a bc 06 e8 fe ba b2 dc bc 3b 93 18 32 bc
       -0.016900856 -0.001944781 0.0057636136 -0.010870117
000340 d6 a2 9a bb fa e2 c8 bb 09 e9 cb bb 28 74 e4 3b
       -0.0047191186 -0.0061305733 -0.0062228483 0.0069718547
000350 76 3a 65 bb 42 2a 8b 3b 6f e7 bb 3b fc 75 e5 b7
       -0.0034977472 0.004246981 0.005734376 -2.7353868e-05
000360 7e 68 8d bc b3 04 a7 b8 9f ee de 39 71 65 3a bc
       -0.01726174 -7.964056e-05 0.00042520926 -0.011376725
000370 b3 49 20 bc 01 a2 af 3b 7d 3e 32 bb b0 83 38 39
       -0.009783196 0.0053598885 -0.002719789 0.00017596665
000380 43 f9 04 bb 83 92 2f bc c6 82 6e bb 58 11 a1 bb
       -0.0020290173 -0.010716083 -0.0036393865 -0.0049153976
000390 dd 45 59 bc ed bd f6 bb 9e 41 2c bc b2 96 1e 3b
       -0.013261286 -0.007529965 -0.010513691 0.0024198708
0003a0 68 e2 99 bb 59 40 25 3b 7a a5 ce 3a 53 64 38 bc
       -0.004696179 0.0025215356 0.0015765869 -0.011254388
0003b0 c0 a7 a3 bb 90 f2 96 3b 84 e3 1f 3c 8f 15 c7 3a
       -0.0049943626 0.0046065524 0.009758834 0.001518892
0003c0 d7 88 71 bc ba 8c 32 3b 75 02 d2 bb 8b c2 bc bb
       -0.014742098 0.0027244524 -0.0064089843 -0.005760496
0003d0 9a 90 a3 bb 7a 1a 00 bc a2 1f 99 3b 24 fc 44 b9
       -0.004991603 -0.0078188125 0.0046729604 -0.00018785946
0003e0 90 c1 9c 3b 69 64 ab 3a f8 d6 11 bc f0 e6 b8 3b
       0.0047838166 0.0013076189 -0.00890135 0.0056427643
0003f0 d4 6b 81 bb 46 8e 10 bb 55 59 06 3c d1 3a 39 3b
       -0.0039496217 -0.0022057458 0.008200009 0.0028263817

fc1.bias f4 [128]
000000 3a 3f dd bc 9f fe 1f 3e 02 49 13 3e 12 71 e1 bc
       -0.027007688 0.15624474 0.14383319 -0.027519736
000010 eb 38 9d 3d 43 69 09 3c 00 2b 52 bd e0 a6 35 3d
       0.07676872 0.008386913 -0.05131054 0.044348598
000020 10 2f e6 3d 9c 0f d6 3a 11 fd b5 3d a4 d9 bd ba
       0.11239445 0.0016331556 0.08886159 -0.0014484418
000030 ad 9a 7b bd ca 0e 20 bc 12 e5 65 3b 10 a1 18 bd
       -0.061426807 -0.009769151 0.0035079163 -0.037262976
000040 22 19 ca bc 7e e8 1e bd b8 d4 1b bc df b5 e4 3c
       -0.024670187 -0.03879594 -0.009511165 0.027918754
000050 9e ee a7 3d ae 7a d7 3d f5 2c bd bb 6f 14 51 3e
       0.081998095 0.10521446 -0.0057731816 0.20417951
000060 66 6a e5 3d 1f df 56 3d b5 33 fa 3d fd fb 87 ba
       0.112019345 0.05245888 0.122168936 -0.0010374781
000070 7d a7 dc 3d 6a ac 4e bc e9 fa 20 bb 05 00 69 3b
       0.10774133 -0.012614349 -0.0024563617 0.003555299
000080 e7 41 14 3e ec 20 02 3e 8d 59 00 bc b6 e4 29 3c
       0.14478265 0.12707871 -0.007833851 0.01036947
000090 93 59 aa 3d 19 d4 66 3c 68 f2 1c 3d ec 6e a6 3d
       0.08317866 0.014088654 0.038317114 0.081266254
0000a0 c9 11 59 bc d6 8c 64 bd 0a 9b 9e 3d a2 ee 50 3d
       -0.013248869 -0.055798374 0.07744415 0.051008828
0000b0 06 84 11 3a 19 12 07 3e ac ba ed 3d dd cb 39 bd
       0.0005550984 0.13190497 0.116078705 -0.045360435
0000c0 4b 36 1e bc df 73 b3 3b 48 11 84 3b 92 e3 f2 3b
       -0.009656499 0.0054764594 0.0040303804 0.0074123824
0000d0 68 f2 3b 3d 96 7e 93 3c e6 f9 fa 3d 14 26 09 bc
       0.045885473 0.018004697 0.122546956 -0.008370895
0000e0 7c de 18 bd b7 90 ef 3c 9a 6c 88 3d 7e 63 42 bd
       -0.037321553 0.02924381 0.06661339 -0.047458164
0000f0 e6 4f de 3c 88 a6 f8 3d ad 3e de 3b ba 2d 2e 3e
       0.027137708 0.12141138 0.006782374 0.17009631
000100 3b 69 b1 3d ba bf 45 3e 4a 84 4c bd 87 95 4d 3d
       0.08662649 0.19311419 -0.04993085 0.05019143
000110 2d d0 6f bd 7e 5d 64 bd 1c df 88 3d 87 8b dd 3a
       -0.05854814 -0.055753224 0.0668318 0.0016902544
000120 1d 82 74 3d e5 6f 04 3d ee 9c aa bb 8f 43 fd 3c
       0.0596944 0.032333273 -0.0052066958 0.030916004
000130 fb 70 bc 3d e1 7f f0 3d 54 13 b2 3d 5f 61 60 3d
       0.09201237 0.11743141 0.08695093 0.05478036
000140 62 71 7b bb 29 e5 aa 3d 35 cd 5d 3d 89 a5 05 3e
       -0.0038367142 0.0834449 0.05415078 0.13051428
000150 32 1d 98 3d e3 60 f7 ba e9 2d 2d 3e 34 eb fb bc
       0.074274436 -0.0018873479 0.16912045 -0.030751802
000160 1e 5e 84 3d 61 1e 98 bd 78 55 7c 3c 93 5a 43 3d
       0.06463264 -0.07427669 0.015401237 0.0476938
000170 cf e3 45 3d 01 ea 4e 3e dc f1 89 3d 22 94 97 3d
       0.04831296 0.20206453 0.06735584 0.07401301
000180 78 d0 08 3d 6c 8f c6 bc a3 74 41 3d 99 28 ce 3d
       0.033401936 -0.02423831 0.047230374 0.10066337
000190 68 ed bc bc d8 9c 0c 3e 2e cc 21 3e f9 e0 35 3e
       -0.023062423 0.13731706 0.15800545 0.17761602
0001a0 2b 52 8d 3d 06 06 fb 3b 13 10 1e 3d 04 f0 e5 3c
       0.06900438 0.00766063 0.03858955 0.02806855
0001b0 a1 da c0 3c ad 1a f4 3d 9e 42 0c bd df bf ce bc
       0.02354175 0.119191505 -0.03424322 -0.025237976
0001c0 d8 0c 0d bc f8 1a 1b 3c 3d b3 f4 3d 15 17 60 bc
       -0.008609019 0.009466879 0.119482495 -0.013677378
0001d0 ff f6 62 bc 1a 6e d5 bc 2e 92 f7 3d 7c 12 5c bc
       -0.013852834 -0.026053477 0.120884284 -0.013432141
0001e0 67 0b 52 3d 71 fa b9 3d dc 9e 89 3d 83 a4 c7 3c
       0.051280405 0.09080971 0.06719753 0.024370437
0001f0 a1 8e 30 3e ff b4 92 bb a5 94 53 bd 8a 4b 2e bd
       0.17241909 -0.004477143 -0.05165543 -0.04255251

fc2.weight f4 [10, 128]
000000 a5 2c 46 ba af 8b 60 be 0b 5b 8d be fb f3 a6 bc
       -0.0007559753 -0.21928285 -0.27608523 -0.02038001
000010 b2 01 b5 be a5 57 ff 3d 74 64 71 3c c2 e9 65 be
       -0.35352856 0.12467889 0.014733423 -0.22452453
000020 29 12 13 be b5 0c bf bc de 6d 74 be 37 5d 87 bc
       -0.14362396 -0.023321489 -0.23870036 -0.01652394
000030 29 47 91 be 2c b6 a5 bd d6 9c 74 bd 28 ed 44 3d
       -0.28374603 -0.08091387 -0.059719883 0.048077732
000040 9e 51 84 3d db 1f be 3c c5 c2 97 bd f0 6b 0b be
       0.0646088 0.02320855 -0.07410196 -0.13615394
000050 10 61 27 be 8f 58 29 be dc 7c 90 bd 63 4b 34 be
       -0.1634562 -0.16537689 -0.07055065 -0.17606883
000060 00 3f 2f 3d f6 e8 8a bd ce 5c 75 be 72 88 b4 3d
       0.04278469 -0.06782715 -0.23961183 0.088150874
000070 a2 d5 3f 3c 31 8b 08 3d d3 bf 5b 3b 99 d7 e4 be
       0.011708649 0.03333587 0.0033531084 -0.44695738
000080 20 de c4 3b d7 57 d9 3b 86 61 1f 3d e9 ee 60 be
       0.0060079247 0.006632786 0.038911365 -0.21966137
000090 10 e6 51 3d 0e 89 82 3d 85 49 96 3d 41 94 63 3e
       0.051244795 0.06373797 0.073382415 0.22224523
0000a0 7c 68 70 bc 9c 62 0c bd 6a ed 27 be 93 07 5c bd
       -0.0146733485 -0.03427373 -0.1639916 -0.05371816
0000b0 0f 89 64 bc 06 ba 05 bd be 8f 46 3d 75 44 77 3d
       -0.013948693 -0.03264811 0.048476927 0.06036802
0000c0 a3 13 6c 3d e9 4b 26 be 74 92 c4 3b 33 f6 a4 be
       0.057635915 -0.16239895 0.005998904 -0.32219085
0000d0 d5 f8 ad be 6e 81 24 be 26 7f 11 3e 27 fb 90 bc
       -0.33978906 -0.16064999 0.1420866 -0.017697884
0000e0 39 cc a9 3d 04 81 8a 3d f9 d0 58 be a6 5f bc 3c
       0.082909055 0.06762889 -0.21173467 0.022994827
0000f0 ff 21 5b be c2 14 b1 be 0f 2b b2 3e da b7 de 3d
       -0.21399687 -0.3458615 0.34798476 0.10874911
000100 59 6e 63 3c 99 31 b9 3c a8 b4 b4 3c ae e3 b7 bd
       0.013881289 0.022606658 0.0220588 -0.08978973
000110 1d 95 aa 3d 97 94 3c be bd 58 20 3d 4d 26 c9 bc
       0.08329222 -0.18416058 0.039147127 -0.024554396
000120 96 d0 0b 3e 2e ad b3 bb 0f b7 09 3d af 6c f5 bc
       0.13653788 -0.005483291 0.033621844 -0.029959051
000130 80 e6 30 be cd 7f da 3d 6f 67 56 3d 10 1b 2b 3d
       -0.17275429 0.10668907 0.052344736 0.041773856
000140 59 89 8d be 19 7f 7b 3d 2a 99 db 3d ae f4 c5 3d
       -0.2764385 0.061400507 0.10722573 0.096658096
000150 8c 46 ba 3c 26 9d 5e bb 32 bf 10 bd 7a 94 fe 3c
       0.022738717 -0.003396818 -0.035338588 0.031076659
000160 1d ad 9d be 2e 38 dc bd e8 9f 16 3d 68 3c ea bd
       -0.30796137 -0.10752903 0.036773592 -0.11437303
000170 2a b5 27 3c 50 28 29 3e 3b 4b ff bd 1f b6 4c be
       0.010236064 0.16519284 -0.12465521 -0.19991349
000180 75 2c 3c be b7 4d f9 bc 77 7c 09 3e 7b c3 90 be
       -0.18376334 -0.030432565 0.13426386 -0.2827414
000190 a5 a6 4c 3d 23 f0 85 3e dd 01 bd be 0d 8f 07 be
       0.049963612 0.26159772 -0.36915484 -0.13238163
0001a0 c7 d5 af 3d ca 94 3b 3e a5 0e 42 be a9 02 a5 3d
       0.08585697 0.18318477 -0.18950899 0.08057148
0001b0 93 57 5a be 64 90 a4 3e a3 8d cb bc 82 93 06 be
       -0.2132247 0.3214141 -0.024847811 -0.13142207
0001c0 47 1a 65 bd 23 8d 2d be dc df 84 3e 5e c3 48 be
       -0.055933263 -0.1694837 0.2595204 -0.19605777
0001d0 f0 70 3a be 46 40 e6 3d 1c a6 80 3e 6e c4 ab bc
       -0.18207145 0.11242728 0.2512673 -0.020967688
0001e0 fe 67 98 ba be af 9c bd 70 ad a2 3d 08 de 89 bd
       -0.0011627672 -0.07650708 0.07943237 -0.06731802
0001f0 00 02 b1 bd 51 37 95 3c 3f 04 a8 bd 6b 17 6a 3d
       -0.086429596 0.018214853 -0.08203935 0.05715124
000200 a1 93 8f 3c 6e 1f 74 3e b0 5f 85 be 7a fe 62 3c
       0.01752645 0.23840114 -0.26049566 0.013854617
000210 82 1c cf 3e 2a 37 13 be e4 4a 48 bd 1a ee 09 be
       0.40451437 -0.14376512 -0.048899546 -0.13469735
000220 11 31 88 bc e8 bb b8 3d c8 2e b9 3d 3a 5b 82 3c
       -0.01662496 0.09020215 0.09042126 0.01591264
000230 c6 84 0d 3d e1 03 8a 3d f5 55 c8 bd a1 59 ea 3b
       0.03455045 0.06739021 -0.0978202 0.007151798
000240 77 d7 ab bc 56 ec c1 ba c3 df 1b bd af 15 63 3d
       -0.020976765 -0.0014795165 -0.038055193 0.0554406
000250 0f b0 78 3e a6 08 21 be 0e dd 31 3d 5c 8e 66 be
       0.24285911 -0.15725955 0.043423705 -0.22515243
000260 c3 0c aa 3d 86 06 81 3e b6 7a 47 3e d6 d8 29 be
       0.08303215 0.2520029 0.19480404 -0.16586623
000270 85 e7 11 be c0 92 80 be 0a df 82 bd ba 4e cf bd
       -0.14248474 -0.2511196 -0.063901976 -0.10122438
000280 3a 30 56 3e 98 db 8c 3d b6 06 18 bd de 3c 47 3e
       0.20916834 0.06877822 -0.037115775 0.19456813
000290 00 10 6f 3d f2 c6 cf be fe 6c 6d 3e 79 18 a7 be
       0.05836487 -0.4058147 0.23186108 -0.3263586
0002a0 1d 8a 90 3b e6 a4 13 3d 31 b4 e7 bd e1 4f d6 bd
       0.0044109956 0.03604593 -0.11313666 -0.104644544
0002b0 17 06 89 bd 84 92 b5 3d 23 75 1d be 71 8c c4 3c
       -0.06690615 0.08865836 -0.15376715 0.023992749
0002c0 ca 8b fc 3c f4 92 97 3c b5 11 44 3d 6a 85 2c be
       0.030828375 0.01850269 0.04786845 -0.16847768
0002d0 73 ad ca 3e d9 be 2b 3e 48 77 71 be b2 a1 65 3d
       0.39585456 0.16772021 -0.23580658 0.056062408
0002e0 03 ac cc 3b 82 b4 0c bd 74 50 94 3e 12 24 35 3d
       0.0062460913 -0.034351833 0.2896763 0.044223852
0002f0 89 1b c2 bd 17 0f 8a 3d 57 e6 83 be 18 d0 97 be
       -0.09477908 0.067411594 -0.25761673 -0.2965095
000300 f4 e8 81 3d 55 ba c8 bb bb 07 d0 3d 39 cf 06 3d
       0.063432604 -0.006125728 0.101577245 0.032912467
000310 91 b2 75 be a6 05 4d 3d c8 2e b0 3c 0b 5f c6 bc
       -0.23993899 0.050054215 0.021506682 -0.024215242
000320 a9 2e 2a 3e 7f a3 80 be bf bb 4c 3d 0c 4d a3 3e
       0.16619362 -0.25124738 0.049983736 0.3189472
000330 27 21 81 be 91 d1 9b be da b5 9e be 93 b4 65 be
       -0.25220606 -0.30433324 -0.30998117 -0.22432165
000340 c4 c6 c9 3d ff 10 a2 bb fe c1 50 be 75 5d ff 3b
       0.09852365 -0.0049458737 -0.20386502 0.0077931234
000350 0e de 4f be 3c d4 87 3d 33 78 80 be a8 aa 64 bc
       -0.20299551 0.06632277 -0.25091705 -0.013956703
000360 14 45 b6 bd 7d 9d c5 bd 27 47 81 bd 04 43 87 ba
       -0.08899894 -0.09649179 -0.06312399 -0.0010319655
000370 cd a1 14 be 00 8b 86 be 59 92 66 be a6 81 ea bd
       -0.14514847 -0.26277924 -0.22516765 -0.1145051
000380 86 f1 aa be cb 6a ec 3c 14 be 8f 3e c3 21 b0 be
       -0.33387393 0.028859517 0.28074706 -0.34400758
000390 7e 65 fb bc 5f d7 33 be ac 8a c6 be 70 cf 17 3e
       -0.030688044 -0.17562626 -0.38777673 0.14825225
0003a0 9e b5 27 be 5d fb 97 be 7f 10 a1 bd b6 9b 88 be
       -0.16377875 -0.29683962 -0.078644745 -0.26681298
0003b0 e2 c4 a4 be 80 e3 d3 3c 50 bb 4e 3d 52 08 15 3e
       -0.3218146 0.025865316 0.050471604 0.14553955
0003c0 fd 63 86 bd c7 b2 2d be 0a 79 e3 3d 85 95 f5 bb
       -0.0656204 -0.1696273 0.11107071 -0.0074946308
0003d0 31 73 63 3d e4 a6 7b bd 35 dd f3 bd 1f 77 51 3d
       0.055529777 -0.061438456 -0.11907426 0.051138993
0003e0 2b ae 40 be 92 99 5c be 9f 0a 2b 3d 45 4f 93 be
       -0.1881644 -0.21542957 0.041758176 -0.28771415
0003f0 a5 b4 05 3e 04 84 06 3d 93 ac 0c 3d 01 eb 2c be
       0.13057192 0.032840744 0.034344267 -0.16886522

fc2.bias f4 [10]
000000 39 4f b8 bc 50 12 90 bc 63 9f 54 bc 9b 0d fa 3b
       -0.022498714 -0.017586857 -0.012977454 0.0076310164
000010 f7 6e d9 bb 21 12 91 bc 3f f6 9c bc 50 51 04 bc
       -0.0066355425 -0.01770884 -0.019160388 -0.008076027
000020 f5 65 54 bc 88 d5 bc bb
       -0.012963762 -0.0057627596
