code/Model-Compression-Demo/Model Pruning/Prune/pts/prune_model_0.6.pth (torch, 303439 bytes, 8 tensors)

conv1.weight f4 [2, 1, 3, 3]
0	0x3dee07a0	0.11622548
1	0xbf84b3ea	-1.0367405
2	0xbf04f796	-0.51940286
3	0xbed66306	-0.41872424
4	0xbf3230ed	-0.69605905
5	0x3e7afde4	0.24510914
6	0x3e4c9eb9	0.19982423
7	0x3e133887	0.14377032
8	0x3d16254a	0.036656655
9	0x3cae17bb	0.02125155
10	0x3e252603	0.16127782
11	0xbf0734ea	-0.52815115
12	0xbe08413f	-0.1330614
13	0x3ea354c9	0.31900623
14	0xbeffeb49	-0.49984196
15	0x3e7c23ed	0.2462308
16	0x3ea34f0a	0.3189624
17	0x3d4c2f0d	0.04984956

conv1.bias f4 [2]
0	0x3e03624e	0.12830469
1	0x3e8b4beb	0.27206358

conv2.weight f4 [4, 2, 3, 3]
0	0x3e733701	0.23751451
1	0xbe87d243	-0.26527604
2	0x3d6a3adf	0.05718505
3	0x3dede777	0.11616414
4	0xbe503118	-0.20331228
5	0x3e040e4f	0.12896083
6	0xbbc07ca0	-0.0058742315
7	0xbc498c7b	-0.01230156
8	0xbdeea882	-0.11653234
9	0xbe333fb5	-0.17504771
10	0x3e314aa3	0.17313628
11	0xbe35728c	-0.17719477
12	0xbee3af80	-0.44469833
13	0x3e97a457	0.2961757
14	0x3d56dc57	0.052456226
15	0xbe53c154	-0.20679218
16	0xbdfd3cd1	-0.123651154
17	0x3e822094	0.2541548
18	0xbe6d5b30	-0.23179317
19	0x3e165ade	0.146831
20	0x3e8cad3a	0.2747591
21	0xbe41348a	-0.18867698
22	0x3e82f485	0.2557718
23	0x3e5072e4	0.20356327
24	0xbe86d987	-0.26337835
25	0xbc9978a8	-0.018734291
26	0xbe3fd4c8	-0.18733513
27	0x3e4fd33b	0.20295422
28	0x3e02c52d	0.12770529
29	0x3d760b6d	0.06006949
30	0xbb51d418	-0.0032017287
31	0x3dbcda1b	0.09221288
32	0xbcb4e578	-0.022082075
33	0xbe5a4b00	-0.21317673
34	0xbe043c4f	-0.12913631
35	0xbd24708c	-0.040146396
36	0xbda810ce	-0.0820633
37	0x3dab4431	0.08362616
38	0xbdfa2c04	-0.122154266
39	0x3eccd07f	0.4000282
40	0x3b5cbcf2	0.0033681956
41	0xbea9ba6b	-0.33150038
42	0x3ea1a77c	0.31573093
43	0x3d97a476	0.07404415
44	0xbe7c6cb8	-0.24650848
45	0xbdf17d0a	-0.117914274
46	0xbf02e018	-0.5112319
47	0xbd2de236	-0.04245206
48	0x3d95efe3	0.073211454
49	0xbeee71e9	-0.46571282
50	0xbbe9f6e6	-0.0071400283
51	0x3e01f789	0.12692083
52	0xbe6dd1f3	-0.2322462
53	0xbccc3f48	-0.024932519
54	0xbe534c50	-0.2063458
55	0x3bf01775	0.007327015
56	0x3d2ade8e	0.04171615
57	0xbd6e67a4	-0.05820431
58	0xbde33e42	-0.11095859
59	0xbd8a2802	-0.06745912
60	0xbe51159d	-0.20418401
61	0x3e036304	0.1283074
62	0xbe3974a6	-0.18110904
63	0xbe01ee27	-0.12688504
64	0xbbef1db1	-0.0072972407
65	0x3e562816	0.20913729
66	0x3dac81ab	0.0842317
67	0xbe124efe	-0.14287946
68	0x3dcd003b	0.100098096
69	0x3c9cc0f4	0.019134976
70	0xbcc6117e	-0.024178263
71	0x3c362f85	0.011119728

conv2.bias f4 [4]
0	0x3d8de859	0.069290824
1	0xbd1d3db1	-0.03838891
2	0x3e82ec04	0.2557069
3	0x3d17ed44	0.03709151

fc1.weight f4 [128, 576]
0	0x3e86d557	0.2633464
1	0x3e4d3839	0.20040978
2	0x3cdc4fbd	0.02689349
3	0xbe3d8b7a	-0.18510237
4	0x3d3ca8e5	0.046059508
5	0x3e4feb22	0.2030454
6	0x3e087899	0.13327254
7	0xbc9307e9	-0.017948108
8	0xbd9b2cc8	-0.07576901
9	0xbd96a9b7	-0.07356589
10	0x3d8d6811	0.06904615
11	0x3d48e07f	0.04904222
12	0x3e06576d	0.13119288
13	0xbe2c70c8	-0.16839898
14	0x3d422674	0.047399953
15	0x3d9670e5	0.07345752
16	0xbd61560a	-0.055013694
17	0x3dd1f2da	0.102513984
18	0x3e616421	0.22010852
19	0x3ceb7a96	0.028744977
20	0xbd0877d1	-0.03331739
21	0x3c5ecd56	0.013598761
22	0xba5cd754	-0.00084244204
23	0x3db6c5f9	0.08924479
24	0x3e1032ec	0.14081925
25	0x3dc13bd0	0.094352365
26	0xbc2e0e8b	-0.0106235845
27	0xbde6106d	-0.11233602
28	0x3cedd9cf	0.029034523
29	0x3c9ef1dc	0.019402437
30	0x3e0cc9cb	0.13748853
31	0x3c4dd2b9	0.012562447
32	0xbd0b9a7d	-0.03408288
33	0xbb83b28a	-0.0040190862
34	0x3a646db2	0.00087138556
35	0x3e145378	0.14484966
36	0xbca6eeb6	-0.020377498
37	0xbd127233	-0.03575344
38	0x3de65058	0.11245793
39	0xbd747c6d	-0.059688974
40	0xbe41b169	-0.18915333
41	0xbd4da29f	-0.050203916
42	0x3c2ebf39	0.010665708
43	0x3cb261ce	0.021775153
44	0xbd9ec563	-0.07752492
45	0xbc19261c	-0.009347465
46	0x3dda2d9a	0.10653229
47	0xbca51ed0	-0.020156294
48	0x3d653479	0.055958245
49	0xbd44bd41	-0.04803205
50	0xba8bb916	-0.0010660018
51	0xbbc6f542	-0.0060717175
52	0xbe39fde0	-0.18163252
53	0xbd6548f7	-0.055977788
54	0xbd936162	-0.07196309
55	0xbe681e56	-0.22667822
56	0x3d5b65da	0.05356393
57	0xbda9d7a3	-0.082930826
58	0x3c8e2b0b	0.017354509
59	0xbcf4e975	-0.029896477
60	0xbcd34cd4	-0.02579347
61	0x3ce65b31	0.028119655
62	0x3c627925	0.013822828
63	0xbdd4311c	-0.10360929
64	0xbdf2ff18	-0.118650615
65	0x3ccdac3f	0.025106547
66	0xbd90483d	-0.07045028
67	0xbe7b8856	-0.24563727
68	0x3c78e6da	0.015191758
69	0xbd139c5a	-0.03603778
70	0xbcfb78dc	-0.030697279
71	0x3c068e43	0.008212629
72	0xbdf796ed	-0.12089334
73	0x3e41b890	0.18918061
74	0x3d55ff38	0.05224535
75	0xbe52de94	-0.2059272
76	0xbe6be6e9	-0.23037304
77	0x3d35649a	0.044285394
78	0x3db6939a	0.089148715
79	0xbe1d9440	-0.15388584
80	0xbc9833d3	-0.0185794
81	0x3d8d016f	0.06885039
82	0x3c9278b1	0.017879816
83	0x3d0005ea	0.03125564
84	0xbd1ae7e9	-0.037818823
85	0x3e383459	0.17988719
86	0x3df76bf3	0.120811366
87	0x3d3f24a7	0.046665814
88	0xbe094484	-0.13405043
89	0x3da34a9d	0.07973216
90	0x3e05be15	0.13060792
91	0xbd0e4692	-0.03473527
92	0xbd2b043d	-0.04175209
93	0x3d04ca9d	0.03241979
94	0x3c540ecd	0.012942982
95	0xbaab3a11	-0.001306357
96	0x3d905683	0.07047751
97	0x3e26f7d3	0.16305475
98	0x3e22847d	0.15870853
99	0x3e040bb9	0.12895097
100	0xbd8fd8b6	-0.07023756
101	0x3d7f419f	0.06231844
102	0x3e2570c7	0.16156302
103	0xbe109098	-0.14117658
104	0xbd86b6dd	-0.06577847
105	0xbd03a5b8	-0.032140464
106	0xbd566032	-0.052337833
107	0x3c230ab7	0.009951285
108	0x3dc92824	0.09822109
109	0x3e177c21	0.14793445
110	0x3d95e061	0.073181875
111	0x3e258327	0.16163312
112	0xbdb2ee8e	-0.08736907
113	0x3d74007a	0.059570767
114	0x3d878ae2	0.06618287
115	0xbdad608b	-0.0846568
116	0xbe044bb2	-0.129195
117	0xba80844a	-0.000980505
118	0xbd2208d4	-0.0395592
119	0x3ca7a7c3	0.020465737
120	0x3b88207a	0.004154262
121	0x3d20767e	0.039175503
122	0x3d9f3c3e	0.07775162
123	0x3d279491	0.04091317
124	0xbdc22c86	-0.094811484
125	0xbd4e1841	-0.0503161
126	0xbdd634aa	-0.104592636
127	0xbc731181	-0.014835716
128	0xbceaa97d	-0.028645271
129	0xbd746a2d	-0.05967157
130	0xbd7f6de4	-0.06236066
131	0xbd9ef727	-0.07761984
132	0xbd780f51	-0.060561482
133	0xbd86be91	-0.065793164
134	0x3de94729	0.11390526
135	0x3dc31794	0.095259815
136	0x3df1c9db	0.11806079
137	0x3d1eb6d1	0.038748566
138	0xbd08dd57	-0.03341421
139	0xbe0918e6	-0.13388404
140	0xbd50b1f8	-0.050950974
141	0xbe314544	-0.17311579
142	0xbc5b8505	-0.013398414
143	0x3e00d03b	0.12579434
144	0xbbb58263	-0.005539225
145	0x3b662131	0.0035114998
146	0x3d96c4ce	0.07361756
147	0x3de3a8d9	0.111161895
148	0xbdcd8c82	-0.10036565
149	0xbc68ecbe	-0.0142166
150	0x3d9a9327	0.07547598
151	0x3db62658	0.08894032
152	0x3c04baf8	0.008101217
153	0x3d24287c	0.04007767
154	0xbca66b37	-0.020314796
155	0xbc4c2cb1	-0.012461827
156	0x3e1d122d	0.15338965
157	0x3e0c97de	0.13729808
158	0x3c878f3d	0.016547794
159	0x3e7e73f4	0.2484892
160	0x3e1d8c68	0.15385592
161	0xbb34bf46	-0.0027579828
162	0xbcbf1d4c	-0.0233294
163	0x3b6748ac	0.0035291119
164	0xbcd8742a	-0.026422579
165	0xbc509438	-0.012730651
166	0xbca93113	-0.020653283
167	0x3d1d997e	0.03847646
168	0x3e8b1fe2	0.27172762
169	0x3e0d191c	0.1377911
170	0x3dee54dd	0.1163728
171	0x3e1b5df3	0.15172558
172	0x3d25eca3	0.040508877
173	0xbd031341	-0.032000784
174	0xbcd4bc09	-0.025968568
175	0xbc444094	-0.011978287
176	0x3d260559	0.040532444
177	0xbd2806b4	-0.041022018
178	0x3d4c2055	0.04983552
179	0x3c8f34f6	0.017481308
180	0x3de1ea0e	0.110309705
181	0x3dcb298b	0.09920033
182	0x3de73538	0.112894475
183	0x3e2dde72	0.16979387
184	0xbd840e57	-0.064480476
185	0xbc864610	-0.01639083
186	0x3d510f33	0.051039886
187	0x3bcba0bf	0.006214231
188	0xbd00b196	-0.03141936
189	0x3d10996d	0.03530257
190	0x3dd9d631	0.10636557
191	0x3dc20c9b	0.094750606
192	0x3e181ba3	0.14854293
193	0x3dad78dd	0.084703185
194	0x3de4298d	0.11140738
195	0x3dd85bce	0.10564385
196	0xbdab1bef	-0.08354937
197	0xbda7a41f	-0.081856005
198	0xbd2f7a1b	-0.04284106
199	0x3d24cfb3	0.04023714
200	0xbdc209e7	-0.09474545
201	0x3d83a425	0.064277925
202	0x3db8e31a	0.09027691
203	0x3d015904	0.031579033
204	0x3bebe5e0	0.007199034
205	0x3b3cc34a	0.0028802925
206	0xbd1fe7e1	-0.039039496
207	0x3cc391cb	0.02387323
208	0x3c8da1be	0.017289039
209	0x3c9cd1da	0.019143034
210	0x3de29e90	0.110654
211	0xbe0933dc	-0.13398689
212	0xbe2a8b21	-0.16654636
213	0x3e345f7a	0.17614546
214	0x3d897fcf	0.06713831
215	0xbc7df662	-0.015500637
216	0xbda709be	-0.08156155
217	0xbcef318b	-0.029198429
218	0xbd7a37a5	-0.061088223
219	0x3d9ddd3f	0.07708215
220	0x3d93b7d2	0.07212795
221	0xbd1d7f03	-0.038451206
222	0x3ce2fda1	0.02770883
223	0xbd13c8d7	-0.036080208
224	0xbc2ee9de	-0.0106758755
225	0x3e256f64	0.16155773
226	0x3cb3d201	0.021950724
227	0xbc572d29	-0.013133326
228	0xbcb1c4bb	-0.021700254
229	0xbd31ab6a	-0.043376364
230	0x3d271938	0.040795535
231	0x3bedc0dd	0.007255657
232	0x3cebf55d	0.028803522
233	0x3d936f74	0.07198992
234	0x3e131109	0.14361967
235	0x3deda5d5	0.116038956
236	0xbbc48d9e	-0.0059983274
237	0x3df55b32	0.11980285
238	0xbdd959f5	-0.10612861
239	0x3d04770e	0.032340102
240	0x3dced66d	0.10099492
241	0xbd999cc4	-0.07500604
242	0xbc6fbc00	-0.014632225
243	0x3df486ce	0.119397745
244	0x3dcc63dd	0.09979985
245	0x3d5955e0	0.053060412
246	0x3de63e39	0.11242337
247	0x3de4482a	0.11146577
248	0xbdb1074a	-0.086439684
249	0x3d63ed01	0.055645946
250	0xbdb6eb13	-0.089315556
251	0xbd1bdd97	-0.03805312
252	0x3d97f52d	0.074198104
253	0xbe217df2	-0.157707
254	0xbcc7689a	-0.02434187
255	0x3e163731	0.14669491

fc1.bias f4 [128]
0	0xbd9c22eb	-0.076238476
1	0x3e53d52a	0.20686784
2	0xbcd33b5a	-0.025785137
3	0x3e6c4617	0.23073612
4	0x3e073c57	0.13206612
5	0x3e566408	0.20936596
6	0xbc54f47c	-0.012997743
7	0x3e90a3a8	0.2824986
8	0x3e0458f6	0.12924561
9	0x3d667c60	0.056270957
10	0x3e657784	0.22408873
11	0x3d8d2ef1	0.06893719
12	0xbd279940	-0.040917635
13	0x3e117ab4	0.14206964
14	0x3d958a0e	0.073017225
15	0x3e512f15	0.20428117
16	0x3c2c6110	0.010521188
17	0x3e28861b	0.16457407
18	0x3d97a0aa	0.07403691
19	0xbc3dfe66	-0.011596298
20	0x3c351b99	0.011053943
21	0x3e2b9c19	0.16758765
22	0xbc993b98	-0.018705174
23	0x3da30711	0.07960332
24	0x3e4690c3	0.1939116
25	0x3db06491	0.086129315
26	0x3d583f91	0.052794997
27	0x3ce11399	0.027475165
28	0x3d33f847	0.043937948
29	0xbc721bc5	-0.014777129
30	0x3dc58094	0.09643665
31	0x3dc02fa1	0.093840845
32	0x3d8ed89f	0.06974911
33	0x3e1b51e7	0.15167962
34	0x3dfbb11e	0.12289642
35	0xbbb8ca20	-0.0056393296
36	0x3e556d93	0.2084258
37	0x3e71f23d	0.23627563
38	0x3e5fd519	0.21858634
39	0x3e17d9c9	0.14829172
40	0x3d267d20	0.040646672
41	0x3e711bfc	0.23545831
42	0x3de7a07c	0.11309907
43	0x3e01e3bf	0.12684534
44	0x3922ddc6	0.00015532141
45	0x3d7538a8	0.059868485
46	0x3ce529b7	0.027973993
47	0x3db42532	0.08796157
48	0xbc9124ab	-0.01771768
49	0x3e2a9628	0.16658843
50	0xbcb99cdf	-0.02265781
51	0x3e19859f	0.14992379
52	0x3e313220	0.17304277
53	0xbcb1f7cc	-0.021724604
54	0x3e7650c4	0.24054247
55	0x3e32ce6b	0.17461555
56	0x3e24a269	0.1607758
57	0x3e17364b	0.14766805
58	0x3d541014	0.051773146
59	0x3e852f23	0.26012525
60	0x3e48cbb9	0.19608964
61	0x3d364a42	0.04450441
62	0x3e470d72	0.19438723
63	0x3e8107bd	0.25201216
64	0x3d804b3b	0.06264349
65	0x3e61e5ed	0.22060366
66	0x3cccf414	0.02501873
67	0x3dafe427	0.085884385
68	0x3e4bded3	0.1990922
69	0x3e4cb76b	0.19991843
70	0x3e080725	0.13283975
71	0x3e5289fe	0.20560452
72	0x3e3c5a9f	0.18393944
73	0x3da5a384	0.08087829
74	0x3e2bcdd0	0.1677773
75	0x3d0c24fe	0.034214966
76	0x3bd3bcd0	0.006461717
77	0x3e6ad3ac	0.22932309
78	0xbdccbf26	-0.09997396
79	0x3dc529ad	0.0962709
80	0xbd159808	-0.03652194
81	0x3e0a89bd	0.13529105
82	0xbbed2743	-0.0072373464
83	0x3e434b73	0.1907175
84	0xbc7d87bc	-0.015474256
85	0xbb7421a0	-0.0037251487
86	0x3dcdb0fd	0.100435235
87	0xbcda61d8	-0.026657984
88	0x3e485b13	0.19565992
89	0xbb87b9e0	-0.004142031
90	0x3dee13a2	0.116248384
91	0x3e65ea38	0.22452629
92	0x3d994392	0.07483591
93	0xbc6997f1	-0.014257417
94	0x3c604e7d	0.013690588
95	0x3e2afc62	0.16697839
96	0x3dfe2561	0.12409473
97	0xbc4f18f6	-0.0126402285
98	0xbc1a1731	-0.009404943
99	0x3e31748a	0.17329612
100	0xbc3d323e	-0.011547623
101	0x3c99e03f	0.018783687
102	0x3e22f4dc	0.15913719
103	0xbba44dd6	-0.0050141616
104	0x3dbf1184	0.09329513
105	0xbc9fc130	-0.019501299
106	0x3e1cc527	0.15309583
107	0x3e95fab5	0.29292837
108	0x3e3065f8	0.17226398
109	0x3e365c7c	0.17808717
110	0x3e4692e8	0.19391978
111	0x3e088d99	0.13335265
112	0x3e5b743c	0.21431059
113	0xbb40d372	-0.0029422906
114	0xbda6a6f5	-0.08137313
115	0xbdeb5986	-0.114916846
116	0x3dde79fa	0.10863109
117	0xbc5df1c4	-0.013546411
118	0xbcfab674	-0.030604579
119	0x3e2f21cc	0.17102736
120	0x3dfe93e8	0.12430555
121	0x3de0a1ec	0.10968384
122	0xbc8402a8	-0.016114548
123	0xbbbbf013	-0.005735406
124	0x3e55307a	0.20819274
125	0x3e90c40b	0.2827457
126	0x3e97de99	0.29662016
127	0x3d34d9d0	0.044153035

fc2.weight f4 [10, 128]
0	0x3c390402	0.011292459
1	0xbdf302e1	-0.118657835
2	0x3c9439c8	0.018093958
3	0x3dea94a0	0.11454129
4	0xbe11aa5a	-0.1422514
5	0x3d99ab95	0.0750343
6	0x3cb71c42	0.022352342
7	0x3e30273e	0.1720247
8	0xbe21c5c8	-0.15798104
9	0xbc95f503	-0.018305307
10	0x3dacf211	0.08444608
11	0xbe0f727d	-0.14008518
12	0xbc9a8690	-0.018862993
13	0x3d2eab43	0.042643797
14	0x3da61ce2	0.08110978
15	0xbd60c33c	-0.05487369
16	0x3dc94641	0.09827853
17	0x3e123881	0.14279367
18	0x3e3ef640	0.18648624
19	0xbc65600f	-0.013999953
20	0x3e068922	0.1313825
21	0x3e03c4cf	0.12868045
22	0xbcb45a51	-0.022015722
23	0xbaa8bc42	-0.0012873488
24	0x3e44003f	0.19140719
25	0x3d4b0dfd	0.049573887
26	0x3d434536	0.047673427
27	0xbbe186f0	-0.006882541
28	0x3cc00e1f	0.023444233
29	0x3d999088	0.0749827
30	0xbe090f46	-0.13384733
31	0xbde38e20	-0.111110926
32	0xbb6e66db	-0.0036377225
33	0xbed008d6	-0.4063174
34	0xbd8c34ae	-0.06845985
35	0xbbfee65c	-0.007778926
36	0xbe7259d4	-0.23667079
37	0x3db0f6ad	0.086408
38	0xbec582e0	-0.38576412
39	0x3e008141	0.12549306
40	0xbc3fa420	-0.011696845
41	0xbea8bca9	-0.32956436
42	0x3d4efab5	0.05053206
43	0x3d4a1d96	0.04934462
44	0x3d80aebf	0.0628333
45	0xbd976fb6	-0.07394354
46	0x3d2d4679	0.042303536
47	0xbce3ee77	-0.02782367
48	0x3caa6232	0.020798776
49	0xbec61cc8	-0.38693833
50	0x3d8d81cd	0.06909523
51	0xbde4d7f7	-0.111740045
52	0xbe0ed078	-0.13946712
53	0xbd019133	-0.031632613
54	0x3d804573	0.062632464
55	0x3e5c5ea3	0.21520476
56	0x3d286ae9	0.041117582
57	0x3da57755	0.080794014
58	0x3e86522b	0.26234564
59	0x3e6358df	0.2220187
60	0xbe806891	-0.25079778
61	0xbe1ab27c	-0.15107149
62	0xbea114e8	-0.31461263
63	0x3e1b09e9	0.15140499
64	0xbe63c0a3	-0.22241454
65	0x3e2406f7	0.16018282
66	0x3cf1b56b	0.029505452
67	0x3d910225	0.07080487
68	0xbe3a03fd	-0.18165584
69	0xbd65a4dd	-0.05606543
70	0xbd3c75a7	-0.04601064
71	0xbe8a09f1	-0.2696071
72	0x3d73a2a9	0.059481297
73	0xbe41ea7d	-0.18937106
74	0xbe071c52	-0.13194397
75	0x3bbd6d16	0.0057808263
76	0x3ccf963f	0.025340198
77	0x3d75b548	0.059987336
78	0xbe00e573	-0.12587528
79	0xbde44cc8	-0.11147457
80	0xbdb8075c	-0.08985779
81	0xbe856691	-0.26054814
82	0xbcdcafd8	-0.026939318
83	0xb94b9a33	-0.00019417032
84	0x3d1aa308	0.037753135
85	0xbc84de26	-0.01621921
86	0x3d1edffb	0.038787823
87	0xbe9b3ee7	-0.30321428
88	0xbec6086c	-0.386783
89	0xbd9f0c17	-0.07765978
90	0x3cf6ae78	0.03011249
91	0xbe2ac003	-0.16674809
92	0xbcbead3f	-0.02327597
93	0x3e3abfeb	0.18237273
94	0xbd6ed2f9	-0.058306668
95	0xbe7674d1	-0.24068
96	0x3e0bfe38	0.13671196
97	0xbd0f98b7	-0.03505775
98	0xbd1bd7e6	-0.038047694
99	0xbeb4fb06	-0.35347766
100	0x3d7228fa	0.05912111
101	0x3c499694	0.012303967
102	0x3cc93754	0.024562515
103	0x3d4ba7e9	0.04972068
104	0xbdd62742	-0.104567066
105	0xbe2142af	-0.15748094
106	0xbe8822ae	-0.26588959
107	0xbde87b24	-0.11351612
108	0x3db01b85	0.08598999
109	0x3d84ba82	0.06480886
110	0xbe6e4e8b	-0.2327215
111	0x3da3cede	0.07998441
112	0xbe168eb6	-0.14702877
113	0x3d1da313	0.038485598
114	0x3d7f165f	0.062277194
115	0xbca726ab	-0.02040418
116	0x3dba5992	0.090991154
117	0x3d659f2d	0.056060005
118	0xbde29d60	-0.11065173
119	0xbe924fb6	-0.2857644
120	0xbe5d37fb	-0.21603386
121	0x3e108d4b	0.14116399
122	0x3b814b10	0.0039457157
123	0x3da3fbd3	0.08007016
124	0xbeba79b4	-0.36420977
125	0xbe8de1e2	-0.27711397
126	0xbe635a3c	-0.2220239
127	0xbd79e9c6	-0.06101396
128	0x3ddfc20f	0.109256856
129	0xbe1f99e9	-0.15586056
130	0x3d09378d	0.033500243
131	0xbe848eb9	-0.2589014
132	0xbe36619e	-0.17810676
133	0xbe340ef8	-0.17583835
134	0xbea6df32	-0.3259216
135	0xbc891b5b	-0.016736677
136	0x3ed32645	0.41240135
137	0x3bc0b15d	0.0058805184
138	0xbe1c1ae8	-0.15244639
139	0x3e005bee	0.12535068
140	0x3ded4722	0.11585833
141	0x3db06499	0.086129375
142	0xbdd59c55	-0.104302086
143	0x3e155984	0.14584929
144	0x3d8c324a	0.068455294
145	0x3e581801	0.21102907
146	0x3d5c8031	0.05383319
147	0xbc8b53ca	-0.017007727
148	0xbe4d799c	-0.20065922
149	0xbe53071f	-0.20608185
150	0x3da74f53	0.08169427
151	0x3d7948ac	0.06086032
152	0xbee13b9e	-0.43990797
153	0xbbf46fd6	-0.007459621
154	0xbde83d16	-0.11339776
155	0x3d559dcf	0.05215245
156	0x3c80dd66	0.015730571
157	0xbd6bee42	-0.057600267
158	0xbe66408e	-0.22485563
159	0xbe1b0f92	-0.15142658
160	0x3cc4a413	0.024004018
161	0xbe518752	-0.20461777
162	0xbecb6d76	-0.3973195
163	0xbcaa7aa2	-0.020810429
164	0xbde70063	-0.11279371
165	0x3e1adf66	0.15124282
166	0xbe9a30fc	-0.30115497
167	0xbea8c192	-0.32960182
168	0xbe7382df	-0.23780392
169	0xbe3e5ad4	-0.18589336
170	0x3930765a	0.00016828757
171	0xbe54f05e	-0.20794818
172	0xbe98e53b	-0.2986239
173	0x3d26aba1	0.04069102
174	0xbd52623a	-0.051363207
175	0xbd1a82bc	-0.037722334
176	0x3d907164	0.070528775
177	0x3e43e20c	0.19129199
178	0x3cee1c91	0.029066356
179	0x3e300a05	0.17191322
180	0x3d9dc52f	0.077036254
181	0x3d9783be	0.07398175
182	0xbe944709	-0.28960446
183	0x3d3b00d4	0.045655087
184	0xbea90283	-0.3300973
185	0xbe7ec0c9	-0.24878229
186	0xbdcdb770	-0.100447536
187	0x3e85b713	0.26116237
188	0x3edcfdf4	0.431625
189	0xbe76eabc	-0.24112982
190	0xbe37c8bc	-0.17947668
191	0x3da2188a	0.07914837
192	0x3a0583fe	0.0005093216
193	0xbb55c4ef	-0.0032618602
194	0xbcf8beec	-0.030364476
195	0xbe9ae9d3	-0.3025652
196	0xbd304585	-0.04303505
197	0xbed2e859	-0.41192892
198	0xbd902172	-0.07037629
199	0xbe9597fe	-0.29217523
200	0xbe703a10	-0.23459649
201	0xbd1dfdf9	-0.038572285
202	0xbe1da533	-0.1539505
203	0x3db3ff92	0.087889805
204	0x3dced879	0.10099883
205	0xbe67eeb3	-0.2264965
206	0x3e78cd38	0.24297035
207	0xbe48a3f5	-0.19593795
208	0x3c8d9eb2	0.017287586
209	0xbda0f629	-0.07859451
210	0x3d9822d4	0.07428518
211	0xbefb9874	-0.4913975
212	0x3cecf9f1	0.028927775
213	0xbce22bab	-0.027608713
214	0x3d2c0fc5	0.042007226
215	0xbe602545	-0.21889217
216	0xbe9728e8	-0.29523396
217	0x3d005e07	0.03133967
218	0x3e005ca4	0.1253534
219	0xbde2ccbb	-0.110742055
220	0x3c6d9339	0.014500433
221	0xbd8e7f42	-0.06957866
222	0xbe0790a3	-0.13238768
223	0x3e232c04	0.1593476
224	0xbeb66d38	-0.35630202
225	0x3c7d3d3b	0.015456493
226	0xbd680ad3	-0.056650948
227	0xbed63354	-0.41836035
228	0xbba49309	-0.005022411
229	0xbe875a14	-0.26435912
230	0xbecf39e0	-0.40473843
231	0xbda0a8c4	-0.078446895
232	0xbda916ff	-0.08256339
233	0x3ea045cd	0.31303254
234	0x3e8fbaa7	0.28072092
235	0xbeaea781	-0.3411217
236	0x3e8a96b5	0.27068105
237	0xbd0309b1	-0.031991664
238	0x3e760064	0.24023587
239	0x3dbd79ff	0.092517845
240	0x3e110d92	0.14165333
241	0xbd067ffa	-0.03283689
242	0xbe86d550	-0.2633462
243	0x3c6650c6	0.014057344
244	0xbe019cc9	-0.12657465
245	0xbcd8ae73	-0.026450371
246	0xbd12f9e6	-0.035882853
247	0xbe7ca8e8	-0.24673808
248	0x3e54da45	0.20786388
249	0x3dcfc356	0.10144679
250	0x3d4bd3e2	0.049762614
251	0x3d1719c9	0.036889825
252	0xbe423af5	-0.18967803
253	0x3db8f779	0.09031577
254	0x3e1f7e14	0.15575439
255	0xbf1e8b56	-0.6193136

fc2.bias f4 [10]
0	0xbc340bee	-0.010989172
1	0xbcebf902	-0.02880526
2	0xbaec3579	-0.0018021307
3	0xbcd7ba6b	-0.026334008
4	0xbca04141	-0.019562365
5	0xbc934378	-0.017976508
6	0xbc916e8e	-0.017752912
7	0x3c6872a0	0.014187485
8	0xbcb9649c	-0.022630982
9	0xbcaf0301	-0.021363737
