code/Model-Compression-Demo/knowledge distillation/models/student_net(without_kd).pth (torch, 439319 bytes, 6 tensors)

fc1.weight f4 [128, 784]
000000 90 03 29 3e 23 a5 95 3d 79 e8 93 3d a3 c3 80 3d
       0.16505265 0.07306888 0.07222075 0.06287315
000010 56 3a 7b 3d c5 3d 94 3d 43 bf 16 3e 3f 9e 42 bd
       0.06133493 0.07238344 0.14721398 -0.047514196
000020 19 8d 38 be 7b 21 63 bd 9f 99 24 be 92 78 1a be
       -0.18022574 -0.05545185 -0.16074227 -0.15085056
000030 ba 60 9b ba 1b 72 4d 3c d3 e8 33 bc c4 ef 49 3c
       -0.0011854388 0.012539412 -0.010980803 0.012325231
000040 21 3f 8e bd e8 4c a4 bd 09 72 35 be 3f f6 af be
       -0.06945635 -0.08022481 -0.17719282 -0.34367558
000050 4e 21 4c be 84 66 af 3c cd a1 dd 3b 56 95 ae 3d
       -0.1993458 0.021411188 0.006763673 0.08524577
000060 bb e6 08 bd b4 d2 7e 3d a6 6d bf 3c ce c9 d1 bd
       -0.033423167 0.06221266 0.023367714 -0.10243569
000070 98 d9 70 bb 64 0a 0d bd d0 a6 ff bc 63 69 63 bc
       -0.003675079 -0.034433737 -0.031207472 -0.013880107
000080 72 24 82 3d 46 d6 6f 3e 5a cd 2d 3e 5a 7c bd 3d
       0.06354608 0.23421583 0.16972867 0.09252234
000090 b3 5e 3a 3e 0e 82 10 3d b7 45 d8 bd 84 bb 26 be
       0.18200187 0.03528028 -0.10560172 -0.16282469
0000a0 d5 0b 2d bd e9 d2 e8 bc 2f dd 28 be f6 6a 2f be
       -0.042247612 -0.028420882 -0.16490625 -0.17130646
0000b0 22 3e 38 be 94 06 70 be 45 5f 05 bd 61 32 c7 3d
       -0.17992452 -0.2344001 -0.03256156 0.09726406
0000c0 92 92 b6 bc a7 b8 9c 3d 38 4d b1 3d e0 21 91 3e
       -0.022286687 0.07652407 0.086573064 0.28346157
0000d0 2e f7 85 3d 69 64 93 bd 7e ac c5 3c 78 aa d8 bd
       0.065412864 -0.07196886 0.024130102 -0.10579389
0000e0 00 1e 78 3e cf ae a2 3e e5 71 a8 3d dc 7d 40 be
       0.24230194 0.31773993 0.08224849 -0.18798012
0000f0 df e0 dc bd c0 52 14 3e f3 98 34 3e 75 03 0e 3e
       -0.10785078 0.14484692 0.1763647 0.13868506
000100 03 26 0c 3e 6c cf 29 bc ae ab e8 bd 53 c5 56 3c
       0.13686375 -0.010364395 -0.1136087 0.013108569
000110 11 e0 1a 3d b1 2b 22 3d 05 19 9b bd de 9f 01 bc
       0.037811343 0.03959245 -0.075731315 -0.00791165
000120 0c 54 a2 bc 2c d2 84 bd 0d d5 8b bc a7 b8 90 3d
       -0.019815467 -0.064853996 -0.017069364 0.0706647
000130 55 1f 3c 3d 65 09 ac 3d 23 54 ff 3c d0 6e c0 3c
       0.045928318 0.08400229 0.03116805 0.02349034
000140 ee b6 e1 bd 2c 60 32 3e e9 76 eb 3c 7e 23 24 3d
       -0.11021219 0.17419499 0.028743224 0.04007291
000150 1f fd 07 3f 98 9c c2 3e 7a a6 c9 3b 62 8e ad bd
       0.5312061 0.38010097 0.0061538788 -0.08474423
000160 d4 17 52 bd 5b 12 0a 3e da b1 34 3e a0 f7 11 3e
       -0.051292256 0.13483565 0.1764597 0.14254618
000170 72 8c 51 3d a2 6e 57 3c 0a e3 ec bd 6e 46 79 3a
       0.05115933 0.0131489355 -0.11566742 0.0009509091
000180 f4 e1 a3 3d ec d6 4d 3d 17 4c c5 3b c3 ef 32 3d
       0.080020815 0.050253794 0.0060210335 0.043685686
000190 0d 70 4f 3d 30 e8 03 bd 58 26 2b bc e6 03 de 3c
       0.05064397 -0.032203853 -0.010446154 0.027101468
0001a0 84 ff 73 3d 6f d0 a6 3d d6 ab c2 bb be 75 cc bd
       0.05956985 0.08145224 -0.0059408946 -0.09983395
0001b0 df 0f 1e be bb b7 10 3e 20 cc 87 3e a4 b3 2c 3e
       -0.15435742 0.14132588 0.26522923 0.16865402
0001c0 dc 2c 04 3f b9 48 a6 3e 9a ab f6 3d 95 a7 bc bc
       0.5163095 0.32477358 0.12044449 -0.023029128
0001d0 01 25 01 3e 82 c1 03 3e d4 17 2a 3e 4c 19 b2 3c
       0.12611772 0.12866786 0.16610652 0.021740578
0001e0 40 10 d3 3d 62 13 8f 3c e1 e5 ea bc d6 fa db 3a
       0.10305834 0.017465297 -0.028674068 0.0016783129
0001f0 53 17 cc 3c d3 5e a3 bd 1a fa cb bd eb dd 89 3c
       0.024913466 -0.07977071 -0.099598125 0.016829452
000200 b6 b2 42 3d 7a 8a 6d 3d bc b3 3d 3d 26 08 cc 3d
       0.047533713 0.05799339 0.046313986 0.09962492
000210 d0 6b 30 3d 45 7b d7 3d 60 98 a5 3d 3b 1c 87 3d
       0.043071568 0.10521559 0.08085704 0.065971814
000220 b7 64 b4 bd dc 98 c7 3d 05 82 5e 3e 89 7d ce 3e
       -0.08808272 0.097459525 0.21729286 0.4033015
000230 08 85 92 3e fb 22 b0 3e ff b3 67 bb 03 39 16 3e
       0.2861712 0.34401688 -0.0035355089 0.14670186
000240 47 c7 20 bd 52 39 14 3e 91 62 f7 3d 58 2d 3a 3d
       -0.039252546 0.14474991 0.12079347 0.0454534
000250 66 d6 99 3d e5 b8 1e bc e2 ff 7e bd 7c 81 80 bd
       0.075115964 -0.009687637 -0.062255748 -0.06274697
000260 df 45 69 3c 1d 20 68 bd 98 a5 2b be 96 51 16 3d
       0.01423785 -0.05667125 -0.16762388 0.0366989
000270 c9 13 64 bd 7f c1 a7 3d 96 c7 8f bc 47 df ad 3b
       -0.05568293 0.08191203 -0.017551225 0.0053061577
000280 ed e6 e5 bd af 9f 89 3d 5e fe 32 3c dc df 57 3e
       -0.11225686 0.0671991 0.010924904 0.2108149
000290 f7 de ff 3c 85 d0 77 3d 53 0c b2 3e 2f ed a4 3e
       0.031234248 0.060501594 0.34775028 0.32212207
0002a0 cf 2e 89 3c 16 c9 4c 3e 3a 02 a4 3d 18 1f 5f 3c
       0.016745953 0.19998583 0.08008237 0.013618253
0002b0 0f fc 8e bd de 71 ea 3d ed d2 da 3d 07 5a 4b 3d
       -0.0698167 0.114475 0.10684762 0.049646404
0002c0 88 00 04 3d 91 cb 28 3d 09 16 ba bc 20 c8 c3 bd
       0.03222707 0.04120976 -0.022715585 -0.09559655
0002d0 d9 37 ed 3d 3b cd 70 bd df 94 c7 bd ea 14 44 b9
       0.11582918 -0.058789473 -0.09745192 -0.00018699808
0002e0 74 c1 72 bc 6e ae 29 bd 15 52 70 3d aa 61 81 3d
       -0.014816631 -0.041426115 0.05867203 0.06317456
0002f0 9d 01 18 bd 88 3c 39 3d d7 9d 94 3d a5 ff fe 3d
       -0.037110914 0.045223743 0.07256668 0.12451104
000300 db f2 aa 3c 28 fc 92 3d af 25 a5 3e 66 3c 5d 3e
       0.020867756 0.07177001 0.32255313 0.21605071
000310 67 fa b2 3d b9 ec 91 3d c9 c5 d9 3d e0 47 39 bd
       0.08739167 0.071252294 0.10633428 -0.04523456
000320 d6 e9 aa bd e9 8e f4 3d d2 af 44 3d f7 7c a5 3c
       -0.08345382 0.119413204 0.048019238 0.02020119
000330 fb 7a f0 3c 28 15 10 3e 9e 69 f8 3c 8c 6e 61 bd
       0.029355517 0.1407057 0.0303238 -0.055037066
000340 86 56 8b 3d 50 84 73 38 26 c8 00 be cc be 3f 3d
       0.068036124 5.805894e-05 -0.1257635 0.046812817
000350 d4 24 9b 3c 63 ac b0 bd d2 8d cc 3c 3f 26 73 3d
       0.01893846 -0.0862663 0.024969969 0.059362646
000360 33 5b 95 3b 79 00 0c bc 82 5f 01 3d f6 e5 d5 3d
       0.004557991 -0.008545035 0.031585224 0.10444252
000370 6b 94 33 3d 44 2c 33 3e 89 c9 40 3e 01 60 5b bd
       0.043842714 0.17497355 0.1882688 -0.053558353
000380 05 af b9 3e 57 cb 98 3e 6c 52 b5 3c 57 6b 4a 3c
       0.36266342 0.29842636 0.022134028 0.012354693
000390 ec 33 8a bc 4e 0d c8 3d c6 11 25 3d ca 3c 3f bd
       -0.016870461 0.09768163 0.040300153 -0.046688832
0003a0 af bf b4 bb 18 83 04 3d 57 de 98 bd ba f7 54 bd
       -0.0055160145 0.032351583 -0.07464283 -0.051994063
0003b0 30 76 4e 3d 99 3e a6 bd 75 ce 37 be 57 00 ed bc
       0.05040568 -0.08117408 -0.17949851 -0.028930826
0003c0 ca e0 1d 3d 5f d4 d0 bd 28 f3 96 bd 52 c8 c8 3d
       0.038544454 -0.101967566 -0.07370597 0.09803833
0003d0 f7 7b 17 bc 3c be 73 3d ea 0e c6 3d 5d 55 c5 3d
       -0.009245864 0.059507594 0.096708134 0.096354224
0003e0 20 b5 e5 3d c2 28 dd 3d 17 6c 37 3e 24 7f 0d 3e
       0.112161875 0.107987896 0.17912327 0.13818032
0003f0 49 3d 08 3f f6 96 88 3e 01 fb c3 bc 2e 85 28 3d
       0.53218514 0.26677674 -0.023923399 0.041142635

fc1.bias f4 [128]
000000 04 0a 11 bd de 1c 42 3b 13 a3 20 bd ab c3 54 bb
       -0.035409942 0.0029619257 -0.03921802 -0.003246526
000010 17 60 f5 3e 5b 4b b4 bc d7 f9 3d 3e 5d 13 bc 3e
       0.47924873 -0.022008589 0.18552338 0.36733523
000020 26 dd 90 3a 3b 0f a1 bb f2 57 4f be 8a 6f 3b be
       0.0011052235 -0.0049151457 -0.20248392 -0.18304268
000030 62 45 4a 3e 40 99 ff bd 34 1a a8 3e d6 89 c5 3e
       0.1975303 -0.12480402 0.3283249 0.38581723
000040 ca 4c 1d 3e ea 5e eb bb 71 8d cf 3d 46 ec 62 3e
       0.15361324 -0.0071829455 0.101344 0.22160444
000050 df e0 97 3e 74 a1 54 bd c4 bd 7c 3e 42 0c 04 bd
       0.2966375 -0.051911786 0.24681765 -0.032238252
000060 ec 05 d0 3d 17 42 4e 3d 19 f5 39 be 98 86 8b 3e
       0.101573795 0.050355997 -0.18159904 0.27251124
000070 24 d5 18 3e b1 d3 de 3b 8b 1f 08 3f b8 11 24 be
       0.14925057 0.006800138 0.5317313 -0.16022384
000080 73 64 83 bd 2e 55 8f be 1f 2a 7f bc 6e 70 95 bc
       -0.064156435 -0.27994674 -0.015574007 -0.018242087
000090 8d 91 63 3d 26 d2 8a be 80 e6 b3 3e 46 4c 8e bc
       0.05555873 -0.27113456 0.35136795 -0.017370354
0000a0 5b e8 ae 3e b1 9e 84 3b 19 5f 9f be 5e 59 4c 3e
       0.34161648 0.004047238 -0.3112724 0.19955966
0000b0 a7 d4 28 bd 6f 49 11 3e 2f 24 aa 3e 5a 4e f6 3c
       -0.041218426 0.14188169 0.3323073 0.030066658
0000c0 4a f6 2c 3e f4 f1 91 bd 8e 41 a4 bb be 86 e8 bc
       0.16890827 -0.07126227 -0.0050126975 -0.028384563
0000d0 25 b5 a0 3e d9 88 0d 3f 14 bc 80 3e 9b 73 9b 3e
       0.31388202 0.5528694 0.25143492 0.30361637
0000e0 3e a0 be 3e ee 65 98 3e ca dd 4f 3f 71 3f 8a 3e
       0.3723163 0.29765266 0.811978 0.27001527
0000f0 61 48 24 3a d3 1f e1 3e 86 7e b9 3d d8 ed 1f bd
       0.0006266889 0.43969592 0.090573356 -0.039045185
000100 30 c8 dd 3e 04 33 c0 bd c5 5c 0b 3e 01 2f b7 3e
       0.43316793 -0.093847305 0.13609608 0.3577805
000110 76 ed 06 3f 27 38 a1 bc 2a 18 26 bc b1 42 84 3b
       0.52706087 -0.019680096 -0.010137597 0.0040362705
000120 b3 dc d1 3e f3 a8 dd 3e 86 65 3c 3e b4 7a c5 3e
       0.40988693 0.4329296 0.18398103 0.38570178
000130 37 7e 89 bc 2d 9b 1e 3e 34 99 60 3e 7e 85 1a bc
       -0.016783817 0.15488882 0.21933442 -0.009431241
000140 61 85 0d 3f 5e 24 b8 3e 6d 25 99 3e 61 f2 0e 3d
       0.55281645 0.35965246 0.29911366 0.03489912
000150 41 03 9f 3e a9 0f 55 3e 2a a3 fd 3c d9 eb 82 3e
       0.3105717 0.20806755 0.030961592 0.25570562
000160 59 28 91 be 25 13 0b 3e 57 14 19 3e 0d 07 cd bc
       -0.28351095 0.13581522 0.14949165 -0.025027776
000170 e2 30 89 3e cb d2 88 bc 85 65 09 bd 55 44 91 3c
       0.26795107 -0.016702076 -0.033544082 0.017732779
000180 ba 57 b3 3d 33 4e a8 3e f5 af 83 be e7 b1 82 bd
       0.08756967 0.3287216 -0.25720182 -0.063815884
000190 63 73 06 bf a1 64 d6 be 51 08 3b 3c 66 88 67 3d
       -0.52519816 -0.4187365 0.011415557 0.056526564
0001a0 51 14 94 3d a6 69 b6 3e 49 b6 3a bd 66 e6 10 3e
       0.072304375 0.35627478 -0.045583997 0.1415039
0001b0 83 3e ce b9 f1 74 18 3f 82 43 0a bd ab 2b 9f 3e
       -0.00039337957 0.5955344 -0.033755787 0.31088004
0001c0 9b f2 6b bd 78 23 6f 3e 7f c4 26 be e7 93 0c 3e
       -0.057604413 0.23353374 -0.16285895 0.13728295
0001d0 c6 1e b3 be 94 28 ef be de 42 61 3e e1 e9 83 3e
       -0.34984416 -0.46710646 0.21998164 0.25764373
0001e0 88 34 17 3e c6 19 e5 3d 5b f0 d4 bc f9 a9 09 3e
       0.14766133 0.111865565 -0.025993517 0.13443746
0001f0 0d ab cf 3e 78 7a 99 3d f7 17 19 bd b7 bd a1 bc
       0.4056019 0.07494062 -0.03737637 -0.019743783

fc2.weight f4 [64, 128]
000000 ad 55 1d be fe c7 ba 3b 91 9a 90 3d 4a 2f 8e bd
       -0.15364714 0.0057001105 0.07060731 -0.069426134
000010 c6 64 22 be 66 87 30 bc 7e eb 5c 3e 29 8b 10 3e
       -0.15858755 -0.010774469 0.21574208 0.14115585
000020 00 6a d1 3b 78 b9 93 3c 11 d9 36 3e 97 40 a8 bd
       0.00639081 0.018032774 0.17856242 -0.082154445
000030 3f 12 c8 3e c4 50 48 bd 63 77 e9 bc db 0c f0 3d
       0.3907642 -0.04890515 -0.02849931 0.11721202
000040 8a 13 a3 3c 4c 98 08 bd 14 02 cb bd 4e d6 f6 3e
       0.019906778 -0.033348367 -0.09912506 0.48210377
000050 68 1a 9e 3d 5f ae c3 bd b7 72 dd 3e 6b cd a8 bb
       0.0771988 -0.09554743 0.43251583 -0.005151441
000060 e1 e4 8b 3e 0e a2 9f 3d 7e c0 ad be c0 48 b7 bd
       0.27323058 0.07794581 -0.33935922 -0.08949423
000070 7f 67 34 bc ca da 2d 3d 6b 9a a0 3d e1 78 c1 bd
       -0.0110110035 0.04244498 0.07841953 -0.09446884
000080 80 f0 79 3e 1c 8b 7b bd 91 1a 82 bb 77 02 0f bd
       0.2440815 -0.061411962 -0.003970452 -0.03491446
000090 25 1c b5 bd 71 9c 01 be 8a 56 a8 bb ee 14 2a bd
       -0.08843259 -0.12657334 -0.0051372694 -0.041523866
0000a0 26 3b 0b 3e 2d 58 60 3d 02 de 62 3d 97 7b 3e be
       0.13596782 0.05477159 0.055387504 -0.18601833
0000b0 70 cd ac 3d d2 6f de bd 90 84 e3 3c d6 14 4b bd
       0.084376216 -0.10861172 0.027773172 -0.049580418
0000c0 30 c3 e5 bd ff 5e 9f bd 54 88 7e bd a2 9f 9d bd
       -0.1121887 -0.07781791 -0.06214173 -0.07696463
0000d0 a4 4b 4e 3e 2f 37 2b be 4e a4 5b 3e 2d a6 b1 3e
       0.20146042 -0.1672027 0.21449396 0.34697095
0000e0 9d c8 30 3c e2 c0 0b 3e b3 f2 5f be 93 64 33 bd
       0.010790017 0.13647798 -0.21869926 -0.043797087
0000f0 70 19 64 bd 17 79 ac 3c 8c cd aa 3c ea 9b a2 3d
       -0.05568832 0.021053834 0.020849966 0.079398945
000100 ef 88 0e 3e 4a cf 8e bd 88 27 55 3e 55 f0 97 ba
       0.13919424 -0.06973131 0.20815861 -0.001159201
000110 db 95 95 be 5d 39 fc bb 26 59 64 bd fe 13 33 3c
       -0.29215893 -0.007697268 -0.05574908 0.0109300595
000120 9e c1 1c 3d fe 9f 08 3d f4 0e 61 bd b1 39 05 3d
       0.038270585 0.033355705 -0.0549459 0.032525722
000130 bf 08 6f 3d e3 1c 9b bd 38 53 44 3e d3 96 54 3d
       0.05835795 -0.07573869 0.1917237 0.05190165
000140 5b 50 7f 3d 47 3a dd 3c cd d0 d0 3d 4b d4 05 3e
       0.062332492 0.027005328 0.101960756 0.13069265
000150 dd 7e 10 be f9 09 cf bd 75 84 e9 bd 01 9e f5 3e
       -0.14110895 -0.10109324 -0.11402217 0.4797211
000160 0c f5 9d bd 5d 23 50 3e 6f fd f4 3d 00 9d 1d 3d
       -0.077127546 0.2032599 0.11962401 0.038479805
000170 f4 a4 0c be a5 63 ca 3d 5f aa 98 3d ca 7b d0 bc
       -0.137348 0.09882287 0.07454371 -0.025449652
000180 f4 0b d2 bd ca 1f 3e bd 0d 26 45 3d 54 17 98 3c
       -0.10256186 -0.046417035 0.04813199 0.018565811
000190 91 84 14 3d 9d 51 58 3d 94 71 bc 3c 29 64 97 3d
       0.036259238 0.052812207 0.023003377 0.07392151
0001a0 00 21 07 be 0f 5e af be a4 69 07 3e 42 4f 16 be
       -0.13196182 -0.3425145 0.13223892 -0.14678672
0001b0 4c 66 1d bb 92 5a 3d 3d 4d 66 98 3d e0 0d a5 3d
       -0.0024017273 0.046228953 0.07441387 0.08059287
0001c0 5b 29 2d 3e ed 82 f0 bd 63 aa 90 3e dc 58 b9 3d
       0.16910307 -0.11743722 0.28254995 0.09050152
0001d0 2f 84 6a 3d cf 5a 2b 3d 96 40 27 3e d0 4d f0 3d
       0.057254966 0.04183465 0.16333231 0.117335916
0001e0 5f 46 5c 3d ce c0 c7 3a d0 b9 a5 bc ad 33 24 3d
       0.05377805 0.0015239955 -0.020230204 0.040088344
0001f0 4d 93 93 be c9 64 87 3d 88 95 32 bd 3d e7 9f 3d
       -0.2882332 0.0661102 -0.043599635 0.07807777
000200 16 e7 84 bd 8f bb d9 bb a8 19 5b 3d bd 55 9e bd
       -0.06489389 -0.006644673 0.053491265 -0.07731197
000210 db a3 c1 bc bc 90 88 bb f5 1d 3b 3d 50 d1 d9 bb
       -0.023637703 -0.0041676443 0.045682866 -0.0066472664
000220 7d d7 94 3d 04 88 d2 3d d8 7d be 3e ae d4 11 be
       0.07267664 0.10279849 0.37205386 -0.14241287
000230 e3 f0 b8 bd c6 f8 4c bc ef 1c d9 bd 72 70 87 be
       -0.090303205 -0.012510484 -0.10601222 -0.26452976
000240 70 2e ae 3d a2 1c d3 3c f3 0b 64 bd 74 03 ff bd
       0.08504951 0.02577049 -0.05567546 -0.124518305
000250 09 68 59 3e 13 a3 1a be e1 27 b4 bd 29 d5 9f bd
       0.21231093 -0.1510127 -0.08796669 -0.07804329
000260 b5 07 c3 3d 6b e7 4a 3d 24 0a 15 be ca 03 63 bc
       0.095229544 0.049537104 -0.1455465 -0.013855884
000270 96 b5 b8 3d 20 9c 32 3d 8c 40 a1 3d 71 a4 09 bf
       0.0901901 0.043605924 0.078736395 -0.5376654
000280 e8 4a 2d 3e 69 32 ca 3d a1 8a 8d 3d 56 19 ad 3d
       0.16923106 0.09872896 0.06911207 0.08452098
000290 e7 94 d1 3d c8 0f 44 3d 39 ff 75 be 93 f8 3b 3d
       0.10233479 0.047866613 -0.24023141 0.045891356
0002a0 08 c5 26 be 8a d9 36 3d 91 4c a3 3d 95 2d e9 3c
       -0.16286099 0.044641055 0.07973588 0.028464118
0002b0 18 b7 8c bd d2 1f 29 bb 0a c5 f7 bd ef c1 33 be
       -0.0687086 -0.002580632 -0.12098129 -0.17554449
0002c0 35 c6 8a 3e 32 13 32 bd e2 00 3b bd 47 5b 08 bd
       0.27104345 -0.043475337 -0.04565514 -0.033290174
0002d0 77 ff a6 3d 06 da 97 3d 60 e4 75 be 14 09 0f 3d
       0.08154195 0.074146315 -0.240129 0.034920767
0002e0 61 84 28 3e 94 52 bc be 96 50 e6 3d 7b fd 0e be
       0.16456749 -0.36781752 0.11245839 -0.13963883
0002f0 58 06 75 bd 76 2a 73 3d 5c 56 f8 bd cd 6d ea 3c
       -0.059820503 0.059366666 -0.12125847 0.02861681
000300 88 6a 29 3e d9 dc 18 be 70 c4 fe 3d 8c 1e b3 3d
       0.16544545 -0.14927997 0.12439811 0.08746061
000310 05 2d 39 3d db 3c 6b 3c 39 04 7e 3e 8e 9f e2 3c
       0.04520895 0.014357771 0.24806298 0.027663972
000320 91 37 0d be e3 9e 1f 3e 1f ca 58 3e 1b b5 0f 3e
       -0.13790728 0.15587954 0.21170853 0.1403393
000330 f9 b2 aa bd fb 94 6e be 20 7a d9 3d 39 b8 4b bc
       -0.083349176 -0.23299019 0.106189966 -0.012434059
000340 ff 64 17 3e 36 3a 93 be 7e 5c ba 3d e4 81 e7 3d
       0.1478462 -0.2875535 0.09099673 0.113040715
000350 60 02 fc bd 6c 10 ce 3d 33 92 71 be cd ef c9 3d
       -0.123051405 0.10061726 -0.23590927 0.098601915
000360 f3 5b 1d 3d 89 84 61 3e ec 5d 03 3d cb 99 2c bd
       0.038417768 0.22023214 0.032071993 -0.042138856
000370 4c 97 c9 3d 6d b4 50 bd 61 d7 28 3e 54 b9 b1 3d
       0.09843311 -0.050953317 0.1648841 0.08677927
000380 79 f6 1a be 35 02 24 3d b6 72 fb 3d 75 06 4f bd
       -0.15133084 0.040041167 0.12277739 -0.050543267
000390 d2 94 5d 3d e5 2a b8 bd db 58 8d 3d 9f 54 2e 3e
       0.054097004 -0.089925565 0.069017135 0.17024468
0003a0 fe 52 8f bd d4 06 e2 bd 4c 26 62 bd 58 f1 7e 3b
       -0.069982514 -0.110364586 -0.055212304 0.0038901176
0003b0 da aa 96 bd 2c 39 bf bd 99 44 0c bd af 62 8b bd
       -0.07356806 -0.093370765 -0.034245107 -0.06805932
0003c0 c5 b9 9e 3d f8 74 f4 bd 42 cd 58 bd 8e 17 c6 be
       0.077502765 -0.119363725 -0.052930124 -0.38689846
0003d0 0a 53 f0 3c 6a 92 54 3d d5 bb 84 3e b1 91 34 3e
       0.029336471 0.051897444 0.25924554 0.17633702
0003e0 6e 23 e4 bd ad 2d 3c be f6 06 b3 3c 04 a7 98 bd
       -0.1113957 -0.18376799 0.021853905 -0.07453731
0003f0 3a e9 5a be 27 5a 1f 3e 80 b1 3a bb 21 b6 0e bd
       -0.21378031 0.15561734 -0.0028487146 -0.03484166

fc2.bias f4 [64]
000000 0e 7d 5b bc 11 11 9a bd 10 05 b1 3e b3 27 d8 3e
       -0.013396515 -0.075227864 0.34574175 0.42217788
000010 00 3f 00 3f af 15 d7 3e cd 5e d9 3e b7 8c 02 3f
       0.5009613 0.4200873 0.4245514 0.50995964
000020 6c f0 b9 bd d6 4d e2 3d e8 65 d4 3e 6a 82 21 be
       -0.0907906 0.11050002 0.41483998 -0.15772405
000030 64 7c c9 bd f3 16 e3 3e d3 16 c1 3e 90 53 3f 3e
       -0.09838179 0.44353446 0.37712726 0.1868422
000040 0d 00 3e bd 02 fc 8f 3e cb 07 8f 3c 50 fe cb 3e
       -0.046386767 0.28121954 0.01745977 0.39842463
000050 2d 5f 1b 3f f3 59 be 3d 27 91 9c 3e 6b 8d 13 be
       0.606921 0.092945 0.30579492 -0.14409415
000060 f5 8b dd bd 01 69 98 3e da 57 59 3e b4 63 27 bb
       -0.1081771 0.29767612 0.21224919 -0.0025541605
000070 7b 5c bd 3d b1 69 5a 3e 63 de 98 bd f3 09 1a 3e
       0.09246155 0.2132938 -0.07464292 0.15042858
000080 ef 52 41 3d 60 53 d3 bd 24 ab 37 3e 35 31 8a bd
       0.047198232 -0.10318637 0.17936379 -0.06747667
000090 25 2b 83 3d fd 77 b6 be 02 9b ae bd ce 1f 47 3e
       0.064047135 -0.3563842 -0.08525659 0.19445726
0000a0 c5 cb 77 3e 9d a5 1b 3e 61 4e ec 3a b7 24 f6 bd
       0.24198826 0.15199895 0.001802873 -0.120187216
0000b0 aa bc ed 3d 21 65 45 be c7 c7 0c 3f fe 5f a8 3e
       0.116082504 -0.19276859 0.54992336 0.32885736
0000c0 03 d9 02 3f 24 be 22 bd a0 33 24 3e 63 c0 45 3e
       0.51112384 -0.039732113 0.16035318 0.19311671
0000d0 69 28 d8 3d 16 81 c8 3e 4e 12 65 bc 75 e5 1b bd
       0.105545826 0.39160985 -0.013981415 -0.038060624
0000e0 4f d6 b6 3e f6 90 63 bd db b5 f3 3e 23 1d 7e 3c
       0.3571038 -0.055558167 0.47599682 0.015509876
0000f0 ce d6 10 3e ab e5 9e bd 47 af f1 bc 04 18 c0 3e
       0.14144441 -0.077586494 -0.029502524 0.37518322

fc3.weight f4 [10, 64]
000000 a9 0d 6a bc 68 4f a1 3d ed 7a 45 3e 1b af bf 3d
       -0.014285483 0.07876474 0.19285174 0.093595706
000010 e0 20 8d 3d 5a 4c 16 3e 86 2a 12 3d 27 6a e1 bd
       0.06891036 0.14677563 0.035685085 -0.11006575
000020 d0 ce 88 bc a1 bf aa 3d 05 9a fc 3c 7a 72 9e 3c
       -0.016700178 0.083373316 0.030835161 0.019341696
000030 7c b3 e4 bd bf 3a ed bd 8f 1a c2 3d 9a e3 25 3e
       -0.111670464 -0.115834706 0.09477722 0.16200104
000040 54 89 55 3d a9 77 35 3e 8c fe 7c bb cc ac 07 3e
       0.05213292 0.17721428 -0.003860387 0.1324951
000050 2b 0c a6 3c 39 3a 5c 3d c5 8f c1 bd 86 52 d0 bd
       0.020269474 0.053766463 -0.0945125 -0.1017199
000060 cf a6 75 bc 1d 9b 81 bd 81 a6 fa 3d 42 a5 59 bd
       -0.014993384 -0.06328414 0.12238789 -0.053136118
000070 14 24 f5 bd 6e ba 22 3e 54 95 d4 3d 4d 69 6e 3c
       -0.11969772 0.1589143 0.103800446 0.014551473
000080 f0 70 20 3d 28 f3 ca bd 4f fb 97 be f2 d6 8c be
       0.039170206 -0.099096596 -0.2968392 -0.2750774
000090 65 c2 0f be 52 c8 44 3d f4 97 6c 3d 2f 22 91 3d
       -0.14039 0.048042603 0.0577621 0.07086598
0000a0 15 83 17 bc ab b2 31 bc 3f 50 ed be ab 28 39 bb
       -0.009247561 -0.01084582 -0.46350285 -0.0028253
0000b0 e1 c3 ae 3b df 06 ab bd 88 5f db 3d 3f 8e 9a bd
       0.005333409 -0.0835092 0.107115805 -0.075466625
0000c0 6c cf bb 3d 0a 9e 84 be aa 6a d5 bc 82 64 f0 bb
       0.09170422 -0.25901824 -0.026051838 -0.0073362
0000d0 f3 a7 8f bd 49 d1 97 3d ef 55 b5 3d 5a 0e 3d 3c
       -0.07014456 0.07412965 0.08854281 0.011539066
0000e0 8d 24 43 3e 6d 71 d6 3d 22 6a 52 3e e4 35 26 3e
       0.19056912 0.10470853 0.20548299 0.16231495
0000f0 1c c0 81 bd 5a 6a 01 be c3 a7 7f 3d dd 1e 73 be
       -0.0633547 -0.12638226 0.06241585 -0.23742242
000100 9e f9 a8 3e 9b 36 8f 3e 94 96 7b 3d 82 67 da 3d
       0.33002943 0.27971348 0.0614229 0.10664274
000110 1e fb 84 bd 96 1b 5f be d1 50 83 3e 20 53 e8 3d
       -0.06493209 -0.21787867 0.25647596 0.1134398
000120 18 9e 24 3e d1 5f 0c 3e 70 d9 c0 be 55 79 94 be
       0.16075933 0.13708426 -0.37665892 -0.2899882
000130 99 e7 92 bd 17 62 57 3e e8 f2 88 be 9a a6 8f bd
       -0.0717308 0.21033512 -0.26747823 -0.070141986
000140 4e be 86 bd 56 ae d6 bd 81 fb 98 3d 42 e5 6a 3e
       -0.065792665 -0.10482471 0.074698456 0.22939017
000150 d6 6d e9 be f5 ac e5 bd 24 74 6c 3c 1b a0 96 3e
       -0.4559161 -0.112146296 0.014431987 0.29419026
000160 53 8e b1 bc f8 f0 2f 3e 29 48 29 be 37 33 4b 3e
       -0.02167431 0.17181766 -0.16531433 0.19843756
000170 aa d8 29 3e 55 68 1a be ca 97 8e bd 2d 28 80 3d
       0.16586557 -0.15078862 -0.06962545 0.06257663
000180 ce bf 62 3c f8 75 ed 3c 9d 44 36 bf 1c b9 df bd
       0.013839675 0.028986916 -0.71198446 -0.10923979
000190 10 98 9c bd c9 51 4b 3e 97 27 39 bd 2d 6e f7 3d
       -0.07646191 0.19855417 -0.04520377 0.12081561
0001a0 10 3a a2 be 83 c7 3a be 34 e5 68 be 59 26 06 3e
       -0.31684923 -0.1824017 -0.22743684 0.13100566
0001b0 be 9d a8 be 9a 95 7c 3e 4a b1 59 3e 9d 40 05 be
       -0.32932848 0.24666443 0.21259037 -0.1301293
0001c0 37 6b d5 be 5f 78 1a bd e2 02 d9 3e d1 08 42 be
       -0.4168336 -0.03771245 0.42385012 -0.18948676
0001d0 ee b5 94 bd 32 d0 3b 3e cd 4a 34 be eb 92 f3 be
       -0.07261263 0.18341139 -0.17606659 -0.47573027
0001e0 f6 cb 51 bd f4 95 72 3d b6 16 0a be e1 0b 4d 3e
       -0.051219903 0.059225038 -0.13485226 0.20024063
0001f0 bf 82 d6 3e 43 6c c5 bc 0d e6 c2 3b cb 50 ac 3d
       0.41896626 -0.024099475 0.0059478343 0.084138475
000200 75 39 9c bd ad c3 99 3d 00 67 14 3e 58 00 8b be
       -0.076281466 0.07508025 0.14492416 -0.271487
000210 06 3b 31 3e d3 1b c1 3d c8 90 08 3e ca f4 54 3e
       0.17307672 0.09429135 0.1333648 0.20796505
000220 fe 01 a9 bc 4e cd 58 3d 30 d3 20 3e e0 a2 d1 bb
       -0.020630833 0.05293017 0.15705562 -0.00639759
000230 b5 c0 62 bd 39 24 19 3e 90 25 8d 3d 7e 97 16 3e
       -0.05535956 0.14955224 0.0689193 0.14706227
000240 a4 e4 b4 bd a8 45 18 bf c8 27 d3 bd 5c d1 cf 3d
       -0.08832672 -0.59481287 -0.10310322 0.10147354
000250 36 89 42 3e 0e de 05 be e5 d7 1a 3e d5 89 36 bc
       0.18997654 -0.13072988 0.1512142 -0.01114126
000260 d6 f5 90 3c cd 83 1a be dd 08 27 3e 69 4a 1f 3e
       0.017695349 -0.1508934 0.16311975 0.15555729
000270 fb be 32 be 11 9e e5 be 7e ca 5d 3d 09 46 0c 3e
       -0.17455666 -0.44847158 0.05414819 0.13698591
000280 91 7a b4 bd c0 9b eb bc 3d 61 b6 be 57 c3 bb bd
       -0.0881244 -0.02876079 -0.35621062 -0.091681175
000290 ce c2 8d be 1c b6 e1 bd b4 b5 e6 3d 75 2a 1c 3e
       -0.27687687 -0.11021063 0.11265126 0.15250571
0002a0 94 3f a3 3d b2 40 bf be 20 83 f0 bc f7 07 b4 be
       0.07971111 -0.37354046 -0.0293594 -0.35162327
0002b0 ea a9 8b bd 9d 56 8c be d5 17 f7 3d 41 0c e8 3d
       -0.06819518 -0.2740983 0.120650925 0.11330462
0002c0 05 fe da 3d 21 87 82 bd 14 ae 57 3e e0 80 c3 bd
       0.10692982 -0.0637343 0.210625 -0.09546065
0002d0 f3 83 c7 3b 20 b1 a3 3d 08 26 74 3d 27 5f 5f bc
       0.0060887276 0.07992768 0.059606582 -0.013633526
0002e0 7e 2e 3d bd 0e 15 f0 bd 9f 16 92 bc 82 0f 9a bc
       -0.046186917 -0.11722766 -0.017833052 -0.018806223
0002f0 64 2a 42 3e 09 83 6b bd c3 1a 7b bd 13 cb 8f be
       0.18961483 -0.05749801 -0.06130482 -0.2808462
000300 ac e4 93 3d 0b d3 e9 ba 70 a6 ab be 18 1b 93 3d
       0.0722135 -0.0017839385 -0.3352542 0.07182902
000310 3a 7c 6a 3e 63 75 0a 3e 1f 20 50 3e c5 26 59 3e
       0.22898951 0.13521342 0.20324753 0.21206196
000320 88 72 5e 3c 97 df 1f 3d 17 18 16 3d 05 0a 21 bd
       0.013577111 0.03903159 0.036644068 -0.039316196
000330 71 7b 78 bd 8e aa ed 3e ba f6 12 3d 8c e9 ac bd
       -0.060664598 0.46419185 0.035879828 -0.08442983
000340 4c 94 de bd ea d2 bf bd d0 3e c6 3d 5e 05 3f 3e
       -0.10868129 -0.093664005 0.09679949 0.18654391
000350 0e ef 0a bf f2 3a ac be 8a f6 1c 3e 38 79 57 3c
       -0.5427102 -0.33638722 0.15328422 0.013151459
000360 6d af 89 3d da 81 8f 3e 56 ee 91 bd 9a 18 8a bc
       0.06722913 0.28028756 -0.07125537 -0.016857434
000370 79 6d af bd 62 26 91 bc 50 81 df bd a5 f2 5e 3e
       -0.08565802 -0.017718498 -0.10913336 0.21772249
000380 a4 a1 94 bd 45 ac 58 3b f5 78 42 bf f0 ec 45 be
       -0.07257393 0.0033061665 -0.75965816 -0.19328666
000390 bc 62 c5 3d 9f c8 36 bd 78 f9 9b bd c6 8f 39 3d
       0.09637973 -0.04462492 -0.07615942 0.04530313
0003a0 da a3 87 be c6 25 cb bd 1c 1d 8c be 21 0e be bc
       -0.26492196 -0.09919314 -0.2736596 -0.023200097
0003b0 c3 b9 62 3e ed 77 be be a3 27 48 3e 55 d4 1c 3e
       0.22141175 -0.3720087 0.1954637 0.15315373
0003c0 ad 84 82 3d 1c a9 2f 3d 65 21 ed bd d6 4a b3 3d
       0.06372962 0.042885885 -0.11578635 0.08754508
0003d0 6d 65 c2 be 37 4c 44 3e 2b 3d 87 be 51 73 0f be
       -0.37968007 0.19169699 -0.26413855 -0.14008833
0003e0 e1 7a 79 3e f2 40 00 bd 10 25 49 3e f5 33 19 bd
       0.24363281 -0.031311937 0.19643044 -0.037403066
0003f0 c5 a7 a7 be b6 cf f3 bc 53 28 f9 3c 4a 05 58 3e
       -0.32745185 -0.02976213 0.030414736 0.21095768

fc3.bias f4 [10]
000000 3c 47 98 3e 73 3b c6 bd d1 16 a6 3e 46 53 57 3e
       0.29741848 -0.09679308 0.32439283 0.2102786
000010 18 18 45 be a9 52 5a 3e cd 9b a8 3e 5b 50 e8 bd
       -0.19247472 0.21320595 0.32931367 -0.113434516
000020 a8 60 94 3e 1f 78 f2 bd
       0.28979993 -0.118393175
