code/Model-Compression-Demo/knowledge distillation/models/student_net(with_kd).pth (torch, 439319 bytes, 6 tensors)

fc1.weight f4 [128, 784]
0	0x3e126150	0.14294934
1	0xbdbdb22b	-0.092624985
2	0x3e18b570	0.14912963
3	0xbe22d906	-0.159031
4	0x3dcfdb7c	0.10149285
5	0x3cdb9584	0.026804693
6	0x3e1f080b	0.15530412
7	0x3e0066e0	0.12539244
8	0xbdfb1c67	-0.12261277
9	0xbc954951	-0.018223437
10	0xbea2c4b4	-0.31790698
11	0x3c46956a	0.012120584
12	0x3e0e89ee	0.13919804
13	0x3e2d1aec	0.16904801
14	0x3e073c79	0.13206662
15	0x3df55139	0.119783826
16	0x3d66ff42	0.056395777
17	0x3dbe14dd	0.09281323
18	0xbe559402	-0.20857242
19	0xbed3813f	-0.41309544
20	0xbf148178	-0.58010054
21	0xbe379ee9	-0.17931713
22	0xbe73556a	-0.23763052
23	0x3c4aa204	0.012367729
24	0xbe9d9066	-0.3077423
25	0x3db144fe	0.08655737
26	0x3d99340f	0.074806325
27	0xbe3b8794	-0.18313438
28	0xbda740ed	-0.081666805
29	0xbd9c1323	-0.076208375
30	0x3c502869	0.012704947
31	0xbdb55df0	-0.08855808
32	0x3c586eab	0.013209979
33	0x3e41efe0	0.18939161
34	0x3e3d96d3	0.18514566
35	0x3e7f02e9	0.24903454
36	0x3e5ec314	0.21754104
37	0xbcef0f0c	-0.02918198
38	0xbe1dd45a	-0.15413037
39	0xbe34a697	-0.17641674
40	0xbcee6bd7	-0.029104156
41	0x3de14e3d	0.11001251
42	0xbda35fe4	-0.07977274
43	0xbe1e18ba	-0.1543912
44	0xbec09585	-0.37614074
45	0xbeaee703	-0.34160623
46	0xbdc2429b	-0.0948536
47	0x3c68e6a2	0.014215143
48	0xbe530d3c	-0.20610517
49	0xbe0e301c	-0.1388554
50	0xbe079775	-0.1324137
51	0x3dcf9397	0.101355724
52	0xbeb877ff	-0.3602905
53	0xbf081a4a	-0.53165114
54	0xbe84f785	-0.25970092
55	0xbe7bd06d	-0.24591227
56	0x3df9a2d2	0.12189259
57	0x3e2ce986	0.16885957
58	0x3e701a4a	0.23447528
59	0xbf00577b	-0.50133485
60	0xbe575286	-0.21027574
61	0x3e668261	0.22510673
62	0x3e4fc73a	0.20290843
63	0x3db88910	0.090105176
64	0x3caca5bf	0.021075128
65	0xbe1109b2	-0.14163855
66	0xbe2eac17	-0.17057835
67	0xbccd62b4	-0.02507148
68	0x3dcfff27	0.10156088
69	0x3e3e19ff	0.18564604
70	0xba8c7d76	-0.0010718543
71	0x3dbe4d0d	0.0929204
72	0xbdd8a15b	-0.10577651
73	0xbe4f0112	-0.20215252
74	0xbe1262b4	-0.14295465
75	0xbb10a46f	-0.0022070666
76	0xbddfcc71	-0.10927666
77	0x3cce7c9b	0.0252059
78	0xbdb6a9ad	-0.08919082
79	0xbe1d6f1a	-0.15374413
80	0xbef38606	-0.4756319
81	0xbdc87c53	-0.09789338
82	0xbe459950	-0.19296765
83	0xbd692619	-0.0569211
84	0x3f3965dc	0.7242105
85	0x3f06750a	0.5252234
86	0xbe1815e8	-0.14852107
87	0xbe931224	-0.28724778
88	0xbd313c35	-0.04327031
89	0x3ddebdf2	0.10876073
90	0x3e09042e	0.133805
91	0x3e0b3dcf	0.13597797
92	0xbc425366	-0.011860704
93	0xbc94fe9d	-0.018187815
94	0xbcdd8799	-0.027042197
95	0x3d97b13f	0.07406854
96	0x3d3741e3	0.04474057
97	0x3d6c27d4	0.05765517
98	0x3c4e6345	0.01259691
99	0xbc869431	-0.016428085
100	0x3d853479	0.06504149
101	0xbd9613ba	-0.07327981
102	0x3d8a35a2	0.06748511
103	0x3ba89c88	0.005145613
104	0xbc948fe1	-0.018135013
105	0x3d5e95bb	0.054342013
106	0xbe4061d0	-0.18787313
107	0xbe9066c7	-0.28203413
108	0xbf01e697	-0.5074248
109	0xbd86f4c8	-0.06589657
110	0x3e3ac9ad	0.18240996
111	0xbe114da7	-0.14189778
112	0x3f21aa17	0.6315016
113	0x3ec23376	0.37929887
114	0x3d2a691f	0.041604158
115	0xbe3b7ace	-0.18308565
116	0x3e543ba4	0.20725876
117	0x3e02373d	0.12716384
118	0x3e59fd7a	0.212881
119	0xbc1dc606	-0.009629732
120	0x3e278380	0.16358757
121	0x3cd0d439	0.02549182
122	0x3d6be350	0.05758983
123	0xbb3b7a1b	-0.0028606716
124	0xbcfe8918	-0.03107123
125	0xbddeaf6b	-0.10873302
126	0xbe7ed824	-0.24887139
127	0xbdb225bf	-0.08698606
128	0x3bf40146	0.007446441
129	0x3da1c948	0.078997195
130	0x3d684fb6	0.056716643
131	0x3e12df1e	0.14342925
132	0xbc95e424	-0.018297262
133	0x3e09f144	0.13470942
134	0xbba239a3	-0.0049507185
135	0xbd637e47	-0.05554035
136	0xbec05bcc	-0.37570035
137	0xbe50cf50	-0.20391583
138	0x3e296c5c	0.16545242
139	0x3e9b33ac	0.3031286
140	0xbe1fe1f0	-0.15613532
141	0x3e8eca23	0.27888593
142	0x3c224e12	0.009906309
143	0x3e987b2e	0.2978148
144	0x3c966297	0.018357558
145	0x3e93699d	0.28791514
146	0x3dc1e366	0.09467201
147	0xbdff643c	-0.1247029
148	0x3d453ee2	0.048155673
149	0xbd46e7ae	-0.04856079
150	0xbd090579	-0.033452485
151	0xbdcb04a7	-0.09912997
152	0x3cbdd4fb	0.023172846
153	0xbd14ca6a	-0.03632585
154	0xbe85e43e	-0.26150697
155	0x3dc5e1e9	0.096622296
156	0xbdf29216	-0.1184427
157	0x3e07f90b	0.13278596
158	0xbbed132f	-0.007234953
159	0x3c973103	0.018455988
160	0xbe35608c	-0.17712611
161	0x3e160a54	0.14652377
162	0xbde3b64b	-0.11118754
163	0x3e63cac3	0.22245316
164	0xbdea5c93	-0.114434384
165	0xbde75cd3	-0.11297002
166	0x3e88f0db	0.26746258
167	0x3e211e7b	0.15734284
168	0xbed0f627	-0.408128
169	0xbe097edf	-0.13427304
170	0x3db6ffd7	0.08935516
171	0x3d837e7b	0.064206086
172	0xbd6881ef	-0.05676454
173	0x3e022758	0.12710321
174	0x3c360216	0.011108896
175	0xbd9999ac	-0.07500014
176	0xbd8cb09b	-0.06869622
177	0xbce09a00	-0.027417183
178	0x3cc33c05	0.02383233
179	0xbdd31d8f	-0.10308372
180	0x3e33976d	0.17538233
181	0xbd4c2f91	-0.04985005
182	0xbe07d31c	-0.13264126
183	0xbb1ad2fe	-0.0023624296
184	0xbdd9d893	-0.106370114
185	0xbd4cef02	-0.050032623
186	0x3d4e89e2	0.050424464
187	0x3dff0792	0.12452616
188	0xbdfa88cf	-0.122331254
189	0xbabcf858	-0.0014417274
190	0xbd835e3d	-0.06414459
191	0x3d624687	0.05524304
192	0xbe61cc28	-0.22050536
193	0xbdd026b6	-0.101636335
194	0x3e9e99c2	0.30976683
195	0x3e52e968	0.2059685
196	0xbe0cfa0a	-0.13767257
197	0xbe11f0d3	-0.14252023
198	0xbbb0364d	-0.005377567
199	0x3d71d70f	0.059042986
200	0x3da8b436	0.082374975
201	0x3dcb7024	0.099334985
202	0xbe2cff6e	-0.16894314
203	0xbd6c848c	-0.057743594
204	0xbc62f00b	-0.013851176
205	0x3e18a6b9	0.1490735
206	0x3db02779	0.08601279
207	0x3cd0a5e8	0.025469735
208	0x3da30549	0.079599924
209	0x3cb9b1ae	0.022667732
210	0xbe22cdfb	-0.15898888
211	0x3d81b101	0.06332589
212	0xbce35ba1	-0.027753653
213	0xbd1a153f	-0.037617918
214	0x3d101fb3	0.03518648
215	0x3dd7c846	0.10536246
216	0xbb0fa76f	-0.0021919867
217	0xbd7dff2f	-0.06201094
218	0xbde52ee8	-0.11190587
219	0x3ca3fcfd	0.020018095
220	0xbd86bede	-0.06579374
221	0x3b78d467	0.0037968399
222	0x3e83863e	0.25688356
223	0xbd9f7d3d	-0.07787559
224	0x3e48e167	0.19617234
225	0x3de7a054	0.11309877
226	0xbde95a35	-0.11394159
227	0x3e6cbac2	0.23118117
228	0x3dc7d376	0.0975713
229	0x3e6e0066	0.2324234
230	0xbe0cbf6f	-0.13744901
231	0xbe342226	-0.17591152
232	0xbda59c50	-0.08086455
233	0x3df0faa3	0.11766555
234	0xbcaa0af2	-0.020757172
235	0x3d8b92f9	0.06815142
236	0x3dac1f9a	0.08404465
237	0xbd5e0487	-0.054203536
238	0xbe3c2ceb	-0.1837651
239	0x3cddedce	0.027090933
240	0xbcd84bd6	-0.026403349
241	0xbdb22c07	-0.08699804
242	0xbc155993	-0.009115594
243	0x3e7d2131	0.24719693
244	0x3cc93d98	0.024565503
245	0x3e17246d	0.14759989
246	0x3e0c160a	0.13680282
247	0x3e0e5208	0.1389848
248	0x3c976f6e	0.018485751
249	0x3e20bd90	0.15697312
250	0x3eb2efef	0.3494868
251	0x3c9c27c4	0.01906193
252	0x3e79727c	0.24360079
253	0x3cd64b79	0.026159035
254	0x3c9b0455	0.018922964
255	0x3deccf2e	0.11562954

fc1.bias f4 [128]
0	0xbefe832d	-0.49709454
1	0x3c9056ad	0.017619455
2	0xbd20a313	-0.03921802
3	0xbb54c3ab	-0.003246526
4	0x3f400aa2	0.75016224
5	0xbcb44b5b	-0.022008589
6	0x3ea3962a	0.31950504
7	0x3f8c1765	1.094464
8	0x3a90dd26	0.0011052235
9	0x3f7c9b88	0.9867482
10	0xbe5a7be9	-0.2133633
11	0xbee34747	-0.44390318
12	0x3e72d1c3	0.2371283
13	0xbe2b1fce	-0.16711351
14	0x3f2b641c	0.6694963
15	0x3f4bccff	0.79609674
16	0x3f1c55f3	0.6106865
17	0xbbeb5eea	-0.0071829455
18	0x3f309383	0.68975085
19	0x3eb90418	0.36135936
20	0x3f00d5b4	0.50326085
21	0x3e957d39	0.291971
22	0x3e73f0e9	0.23822369
23	0xbd040c42	-0.032238252
24	0x3e9cab2a	0.30599338
25	0x3da159da	0.07878466
26	0xbec846b6	-0.39116448
27	0x3fb1d504	1.3893132
28	0x3f093326	0.5359367
29	0x3e8c1142	0.27356917
30	0x3f827c75	1.0194231
31	0x3dcf3fad	0.10119567
32	0xbdfecbc1	-0.12441207
33	0xbf0576e9	-0.5213457
34	0xbc7f2a1f	-0.015574007
35	0xbc95706e	-0.018242087
36	0x3d962ff6	0.073333666
37	0xbf0cc5f0	-0.5498953
38	0x3f311595	0.69173557
39	0xbc8e4c46	-0.017370354
40	0x3f1de92f	0.61683935
41	0x3b849eb1	0.004047238
42	0xbf1d352c	-0.6140926
43	0x3e82f73f	0.2557926
44	0xbd28d4a7	-0.041218426
45	0x3e68aee8	0.22722971
46	0x3f8b5ffc	1.0888667
47	0xbc016383	-0.007897261
48	0x3f33ef9c	0.7028749
49	0x3ecd045c	0.40042388
50	0xbba4418e	-0.0050126975
51	0xbce886be	-0.028384563
52	0x3f37dfbf	0.71825784
53	0x3f796112	0.9741374
54	0x3f0fd487	0.56183666
55	0x3eeca886	0.46222323
56	0x3f4333b1	0.7625075
57	0x3f10a624	0.5650351
58	0x3fc798c8	1.55935
59	0x3f36b236	0.7136568
60	0x3a244861	0.0006266889
61	0x3f37e388	0.7183156
62	0x3e8c8bb8	0.27450347
63	0xbd1fedd8	-0.039045185
64	0x3f3133fc	0.69219947
65	0x3cab2efc	0.020896427
66	0x3efdc0d3	0.49561176
67	0x3f41d78d	0.7571953
68	0x3f8ea556	1.1144207
69	0x3e6eeb03	0.23331837
70	0xba7204cc	-0.0009232282
71	0x3b8442b1	0.0040362705
72	0x3f82ecac	1.0228477
73	0x3f7f006a	0.99610007
74	0x3f051ca2	0.51996815
75	0x3f1bfa3f	0.6092872
76	0xbc897e37	-0.016783817
77	0x3f04a597	0.5181517
78	0x3eb4a612	0.35282952
79	0xbc1a857e	-0.009431241
80	0x401b7e71	2.4295924
81	0x3f067669	0.5252443
82	0x3f6e2dc9	0.9303861
83	0x3e1201c0	0.1425848
84	0x3f5b6094	0.8569424
85	0x3e9f2dac	0.31089532
86	0xbe8ff3f4	-0.2811581
87	0x3eb41ba2	0.35177332
88	0xbdb7dd85	-0.08977798
89	0x3edbafbb	0.4290751
90	0x3ef64171	0.48096803
91	0xbccd070d	-0.025027776
92	0x3ec680f0	0.38770247
93	0xbc88d2cb	-0.016702076
94	0xbe1bc19a	-0.15210572
95	0x3c914455	0.017732779
96	0x3e771af1	0.24131371
97	0x3f297189	0.66188866
98	0xbec5482f	-0.38531634
99	0xbd82b1e7	-0.063815884
100	0xbf936e94	-1.1518121
101	0xbf471055	-0.77759296
102	0x3c3b0851	0.011415557
103	0x3e55e887	0.20889483
104	0xbbb7f940	-0.0056144297
105	0x3f277a4d	0.6542099
106	0x3e39befe	0.18139264
107	0x3f2703c3	0.65240115
108	0xb9ce3e83	-0.00039337957
109	0x3fb65eb4	1.4247651
110	0xbd0a4382	-0.033755787
111	0x3f7713e8	0.9651475
112	0x3e57db71	0.21079804
113	0x3f1c00e1	0.6093884
114	0xbddfc33c	-0.1092591
115	0x3f8304a3	1.023579
116	0xbf1cb337	-0.6121096
117	0xbf3879fb	-0.7206113
118	0x3ef74e2c	0.48301828
119	0x3f8a9b2e	1.0828607
120	0x3e8595ba	0.26090795
121	0x3f09020d	0.53518754
122	0xbcd4f05b	-0.025993517
123	0x3e29a36b	0.16566245
124	0x3f16a887	0.588509
125	0x3e6c4b44	0.23075587
126	0xbd1917f7	-0.03737637
127	0xbca1bdb7	-0.019743783

fc2.weight f4 [64, 128]
0	0xbea82e11	-0.32847646
1	0xbd109343	-0.03529669
2	0x3d909a91	0.07060731
3	0xbd8e2f4a	-0.069426134
4	0xbe885320	-0.2662592
5	0xbc308766	-0.010774469
6	0x3e9f1ffb	0.31079087
7	0x3e8797dd	0.2648305
8	0x3bd16a00	0.00639081
9	0xbb562e47	-0.0032681392
10	0x3eb8b366	0.3607437
11	0xbdc00ac0	-0.093770504
12	0x3ea3433d	0.31887236
13	0xbd111110	-0.035416663
14	0xbc4d3697	-0.012525222
15	0x3e426b7d	0.18986316
16	0x3dea6a83	0.11446097
17	0xbd08984c	-0.033348367
18	0xbcba964b	-0.022776743
19	0x3f4cb3ea	0.7996203
20	0x3dbdb724	0.09263447
21	0x3d33a303	0.043856632
22	0x3eaec8ff	0.34137723
23	0xbba8cd6b	-0.005151441
24	0x3ec0d740	0.37664223
25	0x3d84c844	0.0648351
26	0xbf09e00e	-0.53857505
27	0x3dd73703	0.105085395
28	0xbcd3f58a	-0.025873918
29	0x3b9ae726	0.004727262
30	0x3e5fe23d	0.21863647
31	0xbe1ca8a5	-0.15298708
32	0x3e95295e	0.29133123
33	0xbdd6bf47	-0.10485702
34	0xbb821a91	-0.003970452
35	0xbd0f0277	-0.03491446
36	0xbdb4d844	-0.08830312
37	0xbe3e5402	-0.18586734
38	0xbdbe83e6	-0.093025014
39	0xbd2a14ee	-0.041523866
40	0xbda947e5	-0.08265666
41	0x3d60582d	0.05477159
42	0x38ec89c4	0.00011279018
43	0xbe9d6533	-0.3074127
44	0x3daccd70	0.084376216
45	0xbdc50e9c	-0.09621927
46	0x3e0e2c8b	0.1388418
47	0xbe3b4174	-0.18286687
48	0xbddb65d9	-0.10712785
49	0xbe78a8d5	-0.24283154
50	0xbd7e8854	-0.06214173
51	0xbd9d9fa2	-0.07696463
52	0x3e81be8b	0.25340685
53	0xbe6f60ae	-0.23376724
54	0x3e2bba92	0.1677039
55	0x3f0f1acb	0.5590026
56	0x3bca0ae9	0.0061658514
57	0x3d931f56	0.07183711
58	0xbe9d962e	-0.3077864
59	0x3db58ce6	0.08864765
60	0xbd641970	-0.05568832
61	0x3d77d536	0.06050607
62	0x3d63b31c	0.055590734
63	0x3da29bea	0.079398945
64	0x3df90bcc	0.12160453
65	0xbe35b6f3	-0.17745571
66	0x3ea8f8ec	0.33002412
67	0x3d05319c	0.032518014
68	0xbeb30af3	-0.3496929
69	0x3caf8245	0.021424422
70	0xbdc68194	-0.09692684
71	0x3c3313fe	0.0109300595
72	0x3d13f37b	0.036120873
73	0x3cebe716	0.028796714
74	0x3deb4485	0.114876784
75	0xbc6d13c9	-0.014470049
76	0x3d6f08bf	0.05835795
77	0xbdfe97c1	-0.124312885
78	0x3e56e655	0.20986302
79	0x3d5496d3	0.05190165
80	0x3e22cdbe	0.15898797
81	0xbd4d1a77	-0.050074067
82	0x3e6e9a96	0.23301157
83	0x3e17aaa7	0.14811192
84	0xbdb3a99a	-0.08772583
85	0xbe02c59e	-0.12770697
86	0xbe8ad967	-0.2711899
87	0x3f071d9f	0.52779573
88	0xbe283f9e	-0.16430518
89	0x3e4ee36c	0.20203942
90	0x3e8ce34a	0.27517158
91	0x3d1d9d00	0.038479805
92	0xbe987d7d	-0.2978324
93	0x3dca63a5	0.09882287
94	0x3df5252c	0.119699806
95	0xbcd07bca	-0.025449652
96	0xbde44ca8	-0.111474335
97	0xbdaa7c35	-0.08324472
98	0x3d64c275	0.05584951
99	0x3c981754	0.018565811
100	0x3d906561	0.070505865
101	0x3caec52d	0.021334255
102	0x3cbc7194	0.023003377
103	0x3e114877	0.141878
104	0xbe47c002	-0.19506839
105	0xbf0e7ba3	-0.55657405
106	0x3e3d68ac	0.1849696
107	0xbe434832	-0.19070509
108	0xbb1d664c	-0.0024017273
109	0x3d622d51	0.055219
110	0x3d98664d	0.07441387
111	0x3dcca6f9	0.09992785
112	0x3e21f0f1	0.15814568
113	0xbe018379	-0.12647809
114	0x3ea45f78	0.32104087
115	0x3d8564a4	0.06513336
116	0x3c86b942	0.01644576
117	0xbcc0b798	-0.023525044
118	0x3dd7ed94	0.10543361
119	0x3e421724	0.1895414
120	0x3db3ebc9	0.08785207
121	0x3cdce515	0.026964704
122	0xbca5b9d0	-0.020230204
123	0xbc8f94d4	-0.017527021
124	0xbeff3d5b	-0.49851498
125	0x3d442b87	0.047893073
126	0xbd329588	-0.043599635
127	0x3d9fe73d	0.07807777
128	0xbd997440	-0.07492876
129	0x3c9125e2	0.01771826
130	0x3d5b19a8	0.053491265
131	0xbd9e55bd	-0.07731197
132	0xbcaf62b0	-0.021409363
133	0xbb8890bc	-0.0041676443
134	0x3e2e2424	0.17005974
135	0x3da5511c	0.08072111
136	0x3d94d77d	0.07267664
137	0x3dabfd4b	0.08397921
138	0x3f01f10e	0.50758445
139	0xbe23c74d	-0.15993996
140	0x3eb152d2	0.346335
141	0x3d49ed49	0.04929856
142	0xbe2c8d50	-0.16850781
143	0xbe9a37c1	-0.30120662
144	0x3eafd2c9	0.34340504
145	0x3cd31ca2	0.02577049
146	0xbcc428ee	-0.023945298
147	0xbdd91955	-0.10600535
148	0x3ecca976	0.39973038
149	0xbe0d4175	-0.13794501
150	0x3e0c28a7	0.13687383
151	0xbd9fd529	-0.07804329
152	0x3dac64b9	0.08417649
153	0x3df98c67	0.12184983
154	0xbe7b9504	-0.24568564
155	0x3e398932	0.18118742
156	0x3e998d99	0.29990843
157	0x3e1275e4	0.14302784
158	0x3df2c817	0.1185457
159	0xbf2f236a	-0.6841341
160	0x3e308592	0.17238453
161	0x3d4e81ee	0.05041688
162	0x3d8d8aa1	0.06911207
163	0x3dad1956	0.08452098
164	0x3da620d1	0.08111728
165	0x3a4aa145	0.00077297195
166	0xbf35aca7	-0.7096657
167	0x3d3bf893	0.045891356
168	0xbe9f9e46	-0.3117544
169	0x3d36d98a	0.044641055
170	0xbd80d0f4	-0.06289855
171	0xbe09fe3b	-0.13475887
172	0xbd8cb718	-0.0687086
173	0xbd231d15	-0.039822657
174	0x3e6c4659	0.2307371
175	0xbea863c8	-0.32888627
176	0x3eeea587	0.46610662
177	0x3d6db47c	0.05803345
178	0xbd3b00e2	-0.04565514
179	0xbd085b47	-0.033290174
180	0x3d9b756a	0.07590754
181	0x3de477ed	0.111556865
182	0xbf0c3f74	-0.5478432
183	0x3ef502b4	0.47853625
184	0x3e6f857e	0.23390767
185	0xbf27fe12	-0.65622056
186	0x3e34f38c	0.17671031
187	0xbd5c8c07	-0.053844478
188	0xbd750658	-0.059820503
189	0x3e0b6b8d	0.13615246
190	0xbd15dae9	-0.036585722
191	0x3cea6dcd	0.02861681
192	0x3e4e7514	0.2016185
193	0xbe87fee8	-0.26561666
194	0x3dbad12c	0.091219276
195	0xbd9a7187	-0.07541185
196	0x3e29c42a	0.16578737
197	0x3da0de21	0.07854868
198	0x3e7ac505	0.2448922
199	0x3ce29f8e	0.027663972
200	0xbebcf4ec	-0.3690561
201	0x3e7d02ff	0.24708174
202	0x3ebe6534	0.37186587
203	0xbd182ddc	-0.03715311
204	0xbdaab2f9	-0.083349176
205	0xbf07d8cc	-0.5306518
206	0x3d3abbd8	0.045589298
207	0xbc4bb839	-0.012434059
208	0x3eaed5a1	0.3414736
209	0xbeccf009	-0.40026882
210	0x3dc30377	0.09522145
211	0x3e1a29a5	0.15054949
212	0xbba35f06	-0.004985693
213	0x3dfd4751	0.12367118
214	0xbed62c8d	-0.41830865
215	0x3e2fddc4	0.1717444
216	0x3e03a972	0.12857607
217	0x3e6d15a4	0.23152786
218	0xbd4253b5	-0.04744311
219	0xbd2c99cb	-0.042138856
220	0x3e2a8487	0.16652118
221	0xbd50b46d	-0.050953317
222	0x3ea87007	0.3289797
223	0x3db1b954	0.08677927
224	0xbe6c6a90	-0.23087525
225	0xbd1774a7	-0.036976483
226	0x3de69ec1	0.11260749
227	0xbd4f0675	-0.050543267
228	0xbcb33bda	-0.021879125
229	0xbe71f739	-0.23629464
230	0x3d8d58db	0.069017135
231	0x3e808259	0.25099447
232	0xbd933fdb	-0.07189914
233	0xbe3ee921	-0.18643619
234	0xbdddf593	-0.10837855
235	0x3daf017c	0.08545205
236	0xbd96aada	-0.07356806
237	0xbd530d2a	-0.051526226
238	0xbd0c4499	-0.034245107
239	0xbd883205	-0.066501655
240	0x3e378983	0.1792355
241	0x3a443db5	0.00074860017
242	0xbdce0044	-0.100586444
243	0xbf08f3a7	-0.53496784
244	0xbcaee323	-0.021348542
245	0x3d3c9c2e	0.046047382
246	0x3e3c9a2a	0.18418184
247	0x3edcbffa	0.43115216
248	0xbee77a56	-0.45210522
249	0xbe0d721d	-0.13813062
250	0x3cb306f6	0.021853905
251	0xbe8ad5ed	-0.27116337
252	0xbe9d7f65	-0.30761257
253	0x3e62752e	0.22115013
254	0xbb3ab180	-0.0028487146
255	0xbd0eb621	-0.03484166

fc2.bias f4 [64]
0	0x3e101e69	0.140741
1	0x3e6b9915	0.23007615
2	0x3f28aaff	0.6588592
3	0x3f44461e	0.7666949
4	0x3f50796a	0.81435263
5	0x3f6b6dd7	0.9196448
6	0x3f88f005	1.0698248
7	0x3f73b5d1	0.95199305
8	0xbb36cefa	-0.0027894364
9	0x3f05715f	0.52126116
10	0x3f6fa6bf	0.9361381
11	0xbd3f90dd	-0.04676901
12	0xbe1c2384	-0.15247923
13	0x3f643cdf	0.8915538
14	0x3f4537fc	0.7703855
15	0x3e723a5f	0.2365508
16	0xbda00427	-0.07813292
17	0x3edba8ca	0.42902213
18	0x3dfe5502	0.12418558
19	0x3f7e9fc0	0.9946251
20	0x3f8556c9	1.041711
21	0x3ed21cc3	0.41037568
22	0x3f08c2eb	0.5342242
23	0x3dbf8118	0.093507946
24	0xbddd8bf5	-0.1081771
25	0x3f2cf96a	0.67568076
26	0x3e9b2e0b	0.30308565
27	0x3e1e5598	0.15462339
28	0x3ec3f9c0	0.38276482
29	0x3f24c62e	0.643649
30	0x3e94f887	0.2909586
31	0x3ea533c9	0.3226607
32	0x3d4152ef	0.047198232
33	0xbdd35360	-0.10318637
34	0x3ecd4282	0.40089804
35	0x3e9e70b8	0.30945373
36	0x3e7b3258	0.24530923
37	0xbe9c5e99	-0.30540922
38	0x3de7001a	0.11279316
39	0x3ef5922f	0.47963092
40	0x3ecee69b	0.40410313
41	0x3e81539b	0.25259098
42	0x3eb50dae	0.35362
43	0xbdb7a360	-0.08966708
44	0x3eda31d3	0.42616138
45	0xbe6fb057	-0.23407112
46	0x3f5076d9	0.8143135
47	0x3f3e96c1	0.7444878
48	0x3f77a215	0.9673169
49	0xbd22be24	-0.039732113
50	0x3f0566e3	0.5211012
51	0x3f0e088e	0.55481803
52	0x3e99c175	0.30030409
53	0x3f2f8b5a	0.6857201
54	0x3e8e422c	0.2778486
55	0x3e23756b	0.1596276
56	0x3f3957c1	0.72399527
57	0xbd0dc047	-0.034607198
58	0x3f8c29cb	1.0950254
59	0x3e83ad78	0.25718284
60	0x3ed483c8	0.4150679
61	0xbd9ee5ab	-0.077586494
62	0xbcf1af47	-0.029502524
63	0x3f2d1f06	0.67625463

fc3.weight f4 [10, 64]
0	0xbe586dc7	-0.21135627
1	0x3e35ac04	0.177414
2	0x3f3b7c2c	0.73236346
3	0x3e221ae4	0.1583057
4	0x3e66e029	0.22546448
5	0x3e54e2a5	0.20789583
6	0x3e11c97f	0.14237021
7	0xbe885e71	-0.26634553
8	0xbbeb741f	-0.0071854736
9	0x3e2fad90	0.17156053
10	0x3c92f295	0.017937938
11	0x3de282cf	0.11060106
12	0xbdd7912f	-0.105257384
13	0xbeae9430	-0.34097433
14	0x3e6125e9	0.21987118
15	0x3e66c887	0.22537433
16	0x3ca782cf	0.020448117
17	0x3ea502c9	0.32228687
18	0x3c9f9077	0.019478066
19	0x3e79b70a	0.2438623
20	0x3d998a6d	0.07497106
21	0x3dacbc24	0.084343225
22	0xbe321085	-0.17389114
23	0xbeb60af9	-0.35555246
24	0xbc75a6cf	-0.014993384
25	0xbdc9116e	-0.098177776
26	0x3e44e49e	0.19227836
27	0xbdbb1268	-0.0913437
28	0xbf053720	-0.5203724
29	0x3ef34ee8	0.47521138
30	0x3dee0a2d	0.116230346
31	0x3de38916	0.111101314
32	0x3d2070f0	0.039170206
33	0xbdcaf328	-0.099096596
34	0xbec96302	-0.3933335
35	0xbe8feba8	-0.2810948
36	0xbe9e61ea	-0.30934078
37	0x3e285048	0.16436875
38	0x3deb493c	0.11488578
39	0x3e96995b	0.29413876
40	0x3d3f2d11	0.046673838
41	0xbe877cb3	-0.26462325
42	0xbf607937	-0.8768496
43	0xbe13f9b7	-0.14450727
44	0xbdd620cd	-0.10455475
45	0xbdc9b9ec	-0.09849915
46	0x3e56101e	0.20904586
47	0xbe4f7acf	-0.20261692
48	0x3e2d3bc8	0.16917336
49	0xbe849e0a	-0.25901824
50	0xbe833918	-0.25629497
51	0xbd9c913e	-0.0764489
52	0x3cde5b1f	0.02714306
53	0x3e1e2ddb	0.1544718
54	0x3ecf9f5c	0.4055127
55	0x3d9f5fd2	0.07781948
56	0x3f0c53e7	0.54815525
57	0x3e2e8b89	0.17045416
58	0x3e95852b	0.29203162
59	0x3e8ea568	0.2786057
60	0xbe063b1c	-0.13108486
61	0xbe016a5a	-0.12638226
62	0x3d7fa7c3	0.06241585
63	0xbf198621	-0.5997029
64	0x3e8b5c3e	0.27218813
65	0x3eca83e0	0.39553738
66	0x3dd7cc2c	0.105369896
67	0x3e903e21	0.281724
68	0x3cd84d5c	0.026404075
69	0xbe85f9ed	-0.2616724
70	0x3eda6a42	0.42659193
71	0x3d2bbbbb	0.04192708
72	0x3df56e5a	0.119839385
73	0x3e9d48de	0.30719656
74	0xbf12289c	-0.57093215
75	0xbef66266	-0.48121947
76	0xbc647128	-0.013942994
77	0x3e8c3a3f	0.27388188
78	0xbf36ebd6	-0.7145361
79	0x3c8e4390	0.0173662
80	0xbd86be4e	-0.065792665
81	0xbdd9b5f8	-0.10630411
82	0x3cbd3e36	0.023100954
83	0x3edc12a7	0.4298298
84	0xbef9170a	-0.4865039
85	0xbd88f581	-0.06687451
86	0x3ced73d4	0.028985895
87	0x3e8fcf8e	0.2808804
88	0xbcb18e53	-0.02167431
89	0x3e619ee3	0.22033267
90	0xbe34c05e	-0.17651507
91	0x3e8022bd	0.25026503
92	0x3e66ce4c	0.22539634
93	0xbdb1df9f	-0.086852305
94	0x3d2811e0	0.041032672
95	0x3da4be33	0.0804409
96	0x3c62bfce	0.013839675
97	0x3ced75f8	0.028986916
98	0xbf3725c0	-0.71541977
99	0xbe6735d8	-0.22579134
100	0xbed3d585	-0.4137384
101	0x3e3cfdf3	0.18456249
102	0xbdb8daa6	-0.09026079
103	0x3e434853	0.19070558
104	0xbef2fade	-0.4745702
105	0xbeab0d28	-0.33408475
106	0xbe379591	-0.17928149
107	0x3e22a45d	0.15883012
108	0xbf0e2d9c	-0.55538344
109	0x3e968677	0.29399464
110	0x3e87dd1b	0.26535878
111	0xbe2a3825	-0.1662298
112	0xbf205787	-0.62633556
113	0xbd1a785f	-0.03771245
114	0x3eecbe74	0.46239054
115	0xbeaa0cc9	-0.3321288
116	0xbe5697ed	-0.20956393
117	0x3e93f1e0	0.28895473
118	0xbeeed553	-0.46647128
119	0xbf60693d	-0.8766058
120	0x3d4eac87	0.050457504
121	0x3e02e72e	0.127835
122	0xbe184f59	-0.14874019
123	0x3e85c652	0.2612787
124	0x3eb65893	0.35614452
125	0xbcc56c43	-0.024099475
126	0x3bc2e60d	0.0059478343
127	0x3e4a3c93	0.1974967
128	0xbde6ed22	-0.11275698
129	0x3de45152	0.11148323
130	0x3e940248	0.2890799
131	0xbed903de	-0.42385763
132	0x3e980e44	0.29698384
133	0x3e38cf46	0.18047819
134	0x3e380adb	0.17972891
135	0x3e93fe69	0.28905037
136	0xbe908f9b	-0.28234562
137	0x3e0920be	0.13391396
138	0x3e5c3e2b	0.2150809
139	0x3d561c14	0.05227287
140	0xbd44ee73	-0.048078965
141	0xbc80bf03	-0.015716081
142	0x3dac517d	0.0841398
143	0x3e43752b	0.19087665
144	0xbdf5e702	-0.12006952
145	0xbf495ac4	-0.7865412
146	0xbdd3b993	-0.1033813
147	0x3e360b2e	0.17777702
148	0x3e962212	0.2932287
149	0x3c6cc041	0.014450134
150	0x3e5959f7	0.21225725
151	0xbd19faa2	-0.037592538
152	0x3c90f5d6	0.017695349
153	0xbec1c99a	-0.37849122
154	0x3e7a1841	0.24423315
155	0x3e67f36f	0.22651456
156	0xbe61f82a	-0.22067323
157	0xbf14b32b	-0.5808589
158	0x3de10245	0.10986761
159	0x3e6fb500	0.2340889
160	0xbdb47a91	-0.0881244
161	0xbceb9bc0	-0.02876079
162	0xbf1078af	-0.5643415
163	0xbd54f206	-0.051988624
164	0xbec9e307	-0.3943102
165	0xbb961573	-0.0045801937
166	0x3e12dc6b	0.14341895
167	0x3e750452	0.2392743
168	0x3e71a4f4	0.23598081
169	0xbf1657a7	-0.58727497
170	0x3d4a30a3	0.04936279
171	0xbf88a51d	-1.0675389
172	0xbd2c9e5c	-0.04214321
173	0xbec76996	-0.38947743
174	0x3e1cf636	0.15328297
175	0x3e8dc00a	0.27685577
176	0x3e3ccd65	0.18437727
177	0xbd828721	-0.0637343
178	0x3e969e17	0.29417488
179	0xbe1ceba7	-0.15324269
180	0x3ca20162	0.01977605
181	0x3e2145da	0.15749303
182	0x3ebb6500	0.36600494
183	0xbc8c4507	-0.017122759
184	0x3e5c65a6	0.21523151
185	0xbdc80590	-0.09766686
186	0x3d4b1b65	0.049586672
187	0x3dbd3547	0.092386775
188	0x3ea5faa7	0.32417795
189	0xbd6b8309	-0.05749801
190	0xbd7b1ac3	-0.06130482
191	0xbf07cd14	-0.530473
192	0xbdf675fc	-0.120342225
193	0xbd8ba815	-0.068191685
194	0xbee8e5dd	-0.45487872
195	0x3e3a377b	0.18185227
196	0x3ecd1553	0.40055332
197	0x3e6db97f	0.23215292
198	0x3e9f31bd	0.31092635
199	0x3e64050c	0.2226755
200	0xbec1f4af	-0.3788199
201	0x3debf62e	0.115215644
202	0x3da98075	0.08276454
203	0xbe48ce72	-0.19610003
204	0xbdaa631e	-0.08319686
205	0x3f2f2d72	0.6842872
206	0x3dc355c5	0.095378436
207	0xbd84373a	-0.06455846
208	0xbdde944c	-0.10868129
209	0xbd14d715	-0.03633793
210	0x3e1e9ce8	0.15489542
211	0x3e8aa151	0.270762
212	0xbf754db6	-0.958217
213	0xbf4186d8	-0.7559638
214	0x3e7e2224	0.24817711
215	0xbd9c14d1	-0.07621158
216	0x3d89af6d	0.06722913
217	0x3ed969c7	0.42463514
218	0xbd492437	-0.049106803
219	0xbe173ab1	-0.14768483
220	0xbea53e69	-0.32274178
221	0x3e597a78	0.21238124
222	0xbe3bc1cc	-0.18335646
223	0x3e929327	0.28627893
224	0xbd94a1a4	-0.07257393
225	0x3b58ac45	0.0033061665
226	0xbf84cd6b	-1.0375189
227	0xbefcded4	-0.49388754
228	0x3e1ae194	0.15125114
229	0xbd24f619	-0.04027376
230	0xbe1df21d	-0.1542439
231	0x3d02159b	0.031758886
232	0xbed13d22	-0.40866953
233	0xbd98bb9f	-0.07457661
234	0xbf1e8b10	-0.6193094
235	0xbd967a09	-0.07347495
236	0x3e834f5d	0.25646487
237	0xbf5a5145	-0.8528026
238	0x3eb42eed	0.35192052
239	0x3e90c6c2	0.2827664
240	0x3e088bda	0.13334599
241	0x3d2fa91c	0.042885885
242	0xbf23a4fe	-0.63923633
243	0x3e2730e5	0.16327246
244	0xbeb3cbd5	-0.3511645
245	0x3e969841	0.29413036
246	0xbed3338b	-0.41250262
247	0xbe48bc88	-0.19603169
248	0x3ee9fea5	0.4570209
249	0x3cd708ef	0.026249377
250	0x3e97a92f	0.29621264
251	0xbd2223dc	-0.03958498
252	0xbf61d361	-0.88213164
253	0xbcf3cfb6	-0.02976213
254	0x3cf92853	0.030414736
255	0x3e97d87a	0.29657346

fc3.bias f4 [10]
0	0x3ebc7938	0.36811233
1	0x3e9912fc	0.29897296
2	0x3ed9c4ec	0.42533052
3	0x3ed10188	0.4082148
4	0xbdfd4c42	-0.12368061
5	0x3ea7f3e7	0.3280327
6	0x3ed71633	0.42009124
7	0x3e0f3945	0.1398669
8	0x3f5d5833	0.86462706
9	0x3e820144	0.2539159
